…
                                     task_type: multilabel
                                     train_data_len: 15513
                                     vocab: <mmbt.data.vocab.Vocab object at 0x7f43cc382970>
                                     vocab_sz: 30522
                                     warmup: 0.1
                                     weight_classes: 1
INFO - 04/18/23 22:06:19 - 0:00:00 - MultimodalBertClf(
                                       (enc): MultimodalBertEncoder(
                                         (txt_embeddings): BertEmbeddings(
                                           (word_embeddings): Embedding(30522, 768, padding_idx=0)
                                           (position_embeddings): Embedding(512, 768)
                                           (token_type_embeddings): Embedding(2, 768)
                                           (LayerNorm): BertLayerNorm()
                                           (dropout): Dropout(p=0.1, inplace=False)
                                         )
                                         (img_embeddings): ImageBertEmbeddings(
                                           (img_embeddings): Linear(in_features=2048, out_features=768, bias=True)
                                           (position_embeddings): Embedding(512, 768)
                                           (token_type_embeddings): Embedding(2, 768)
                                           (word_embeddings): Embedding(30522, 768, padding_idx=0)
                                           (LayerNorm): BertLayerNorm()
                                           (dropout): Dropout(p=0.1, inplace=False)
                                         )
                                         (img_encoder): ImageEncoder(
                                           (model): Sequential(
                                             (0): Conv2d(3, 64, kernel_size=(7, 7), stride=(2, 2), padding=(3, 3), bias=False)
                                             (1): BatchNorm2d(64, eps=1e-05, momentum=0.1, affine=True, track_running_stats=True)
                                             (2): ReLU(inplace=True)
                                             (3): MaxPool2d(kernel_size=3, stride=2, padding=1, dilation=1, ceil_mode=False)
                                             (4): Sequential(
                                               (0): Bottleneck(
                                                 (conv1): Conv2d(64, 64, kernel_size=(1, 1), stride=(1, 1), bias=False)
                                                 (bn1): BatchNorm2d(64, eps=1e-05, momentum=0.1, affine=True, track_running_stats=True)
                                                 (conv2): Conv2d(64, 64, kernel_size=(3, 3), stride=(1, 1), padding=(1, 1), bias=False)
                                                 (bn2): BatchNorm2d(64, eps=1e-05, momentum=0.1, affine=True, track_running_stats=True)
                                                 (conv3): Conv2d(64, 256, kernel_size=(1, 1), stride=(1, 1), bias=False)
                                                 (bn3): BatchNorm2d(256, eps=1e-05, momentum=0.1, affine=True, track_running_stats=True)
                                                 (relu): ReLU(inplace=True)
                                                 (downsample): Sequential(
                                                   (0): Conv2d(64, 256, kernel_size=(1, 1), stride=(1, 1), bias=False)
                                                   (1): BatchNorm2d(256, eps=1e-05, momentum=0.1, affine=True, track_running_stats=True)
                                                 )
                                               )
                                               (1): Bottleneck(
                                                 (conv1): Conv2d(256, 64, kernel_size=(1, 1), stride=(1, 1), bias=False)
                                                 (bn1): BatchNorm2d(64, eps=1e-05, momentum=0.1, affine=True, track_running_stats=True)
                                                 (conv2): Conv2d(64, 64, kernel_size=(3, 3), stride=(1, 1), padding=(1, 1), bias=False)
                                                 (bn2): BatchNorm2d(64, eps=1e-05, momentum=0.1, affine=True, track_running_stats=True)
                                                 (conv3): Conv2d(64, 256, kernel_size=(1, 1), stride=(1, 1), bias=False)
                                                 (bn3): BatchNorm2d(256, eps=1e-05, momentum=0.1, affine=True, track_running_stats=True)
                                                 (relu): ReLU(inplace=True)
                                               )
                                               (2): Bottleneck(
                                                 (conv1): Conv2d(256, 64, kernel_size=(1, 1), stride=(1, 1), bias=False)
                                                 (bn1): BatchNorm2d(64, eps=1e-05, momentum=0.1, affine=True, track_running_stats=True)
                                                 (conv2): Conv2d(64, 64, kernel_size=(3, 3), stride=(1, 1), padding=(1, 1), bias=False)
                                                 (bn2): BatchNorm2d(64, eps=1e-05, momentum=0.1, affine=True, track_running_stats=True)
                                                 (conv3): Conv2d(64, 256, kernel_size=(1, 1), stride=(1, 1), bias=False)
                                                 (bn3): BatchNorm2d(256, eps=1e-05, momentum=0.1, affine=True, track_running_stats=True)
                                                 (relu): ReLU(inplace=True)
                                               )
                                             )
                                             (5): Sequential(
                                               (0): Bottleneck(
                                                 (conv1): Conv2d(256, 128, kernel_size=(1, 1), stride=(1, 1), bias=False)
                                                 (bn1): BatchNorm2d(128, eps=1e-05, momentum=0.1, affine=True, track_running_stats=True)
                                                 (conv2): Conv2d(128, 128, kernel_size=(3, 3), stride=(2, 2), padding=(1, 1), bias=False)
                                                 (bn2): BatchNorm2d(128, eps=1e-05, momentum=0.1, affine=True, track_running_stats=True)
                                                 (conv3): Conv2d(128, 512, kernel_size=(1, 1), stride=(1, 1), bias=False)
                                                 (bn3): BatchNorm2d(512, eps=1e-05, momentum=0.1, affine=True, track_running_stats=True)
                                                 (relu): ReLU(inplace=True)
                                                 (downsample): Sequential(
                                                   (0): Conv2d(256, 512, kernel_size=(1, 1), stride=(2, 2), bias=False)
                                                   (1): BatchNorm2d(512, eps=1e-05, momentum=0.1, affine=True, track_running_stats=True)
                                                 )
                                               )
                                               (1): Bottleneck(
                                                 (conv1): Conv2d(512, 128, kernel_size=(1, 1), stride=(1, 1), bias=False)
                                                 (bn1): BatchNorm2d(128, eps=1e-05, momentum=0.1, affine=True, track_running_stats=True)
                                                 (conv2): Conv2d(128, 128, kernel_size=(3, 3), stride=(1, 1), padding=(1, 1), bias=False)
                                                 (bn2): BatchNorm2d(128, eps=1e-05, momentum=0.1, affine=True, track_running_stats=True)
                                                 (conv3): Conv2d(128, 512, kernel_size=(1, 1), stride=(1, 1), bias=False)
                                                 (bn3): BatchNorm2d(512, eps=1e-05, momentum=0.1, affine=True, track_running_stats=True)
                                                 (relu): ReLU(inplace=True)
                                               )
                                               (2): Bottleneck(
                                                 (conv1): Conv2d(512, 128, kernel_size=(1, 1), stride=(1, 1), bias=False)
                                                 (bn1): BatchNorm2d(128, eps=1e-05, momentum=0.1, affine=True, track_running_stats=True)
                                                 (conv2): Conv2d(128, 128, kernel_size=(3, 3), stride=(1, 1), padding=(1, 1), bias=False)
                                                 (bn2): BatchNorm2d(128, eps=1e-05, momentum=0.1, affine=True, track_running_stats=True)
                                                 (conv3): Conv2d(128, 512, kernel_size=(1, 1), stride=(1, 1), bias=False)
                                                 (bn3): BatchNorm2d(512, eps=1e-05, momentum=0.1, affine=True, track_running_stats=True)
                                                 (relu): ReLU(inplace=True)
                                               )
                                               (3): Bottleneck(
                                                 (conv1): Conv2d(512, 128, kernel_size=(1, 1), stride=(1, 1), bias=False)
                                                 (bn1): BatchNorm2d(128, eps=1e-05, momentum=0.1, affine=True, track_running_stats=True)
                                                 (conv2): Conv2d(128, 128, kernel_size=(3, 3), stride=(1, 1), padding=(1, 1), bias=False)
                                                 (bn2): BatchNorm2d(128, eps=1e-05, momentum=0.1, affine=True, track_running_stats=True)
                                                 (conv3): Conv2d(128, 512, kernel_size=(1, 1), stride=(1, 1), bias=False)
                                                 (bn3): BatchNorm2d(512, eps=1e-05, momentum=0.1, affine=True, track_running_stats=True)
                                                 (relu): ReLU(inplace=True)
                                               )
                                               (4): Bottleneck(
                                                 (conv1): Conv2d(512, 128, kernel_size=(1, 1), stride=(1, 1), bias=False)
                                                 (bn1): BatchNorm2d(128, eps=1e-05, momentum=0.1, affine=True, track_running_stats=True)
                                                 (conv2): Conv2d(128, 128, kernel_size=(3, 3), stride=(1, 1), padding=(1, 1), bias=False)
                                                 (bn2): BatchNorm2d(128, eps=1e-05, momentum=0.1, affine=True, track_running_stats=True)
                                                 (conv3): Conv2d(128, 512, kernel_size=(1, 1), stride=(1, 1), bias=False)
                                                 (bn3): BatchNorm2d(512, eps=1e-05, momentum=0.1, affine=True, track_running_stats=True)
                                                 (relu): ReLU(inplace=True)
                                               )
                                               (5): Bottleneck(
                                                 (conv1): Conv2d(512, 128, kernel_size=(1, 1), stride=(1, 1), bias=False)
                                                 (bn1): BatchNorm2d(128, eps=1e-05, momentum=0.1, affine=True, track_running_stats=True)
                                                 (conv2): Conv2d(128, 128, kernel_size=(3, 3), stride=(1, 1), padding=(1, 1), bias=False)
                                                 (bn2): BatchNorm2d(128, eps=1e-05, momentum=0.1, affine=True, track_running_stats=True)
                                                 (conv3): Conv2d(128, 512, kernel_size=(1, 1), stride=(1, 1), bias=False)
                                                 (bn3): BatchNorm2d(512, eps=1e-05, momentum=0.1, affine=True, track_running_stats=True)
                                                 (relu): ReLU(inplace=True)
                                               )
                                               (6): Bottleneck(
                                                 (conv1): Conv2d(512, 128, kernel_size=(1, 1), stride=(1, 1), bias=False)
                                                 (bn1): BatchNorm2d(128, eps=1e-05, momentum=0.1, affine=True, track_running_stats=True)
                                                 (conv2): Conv2d(128, 128, kernel_size=(3, 3), stride=(1, 1), padding=(1, 1), bias=False)
                                                 (bn2): BatchNorm2d(128, eps=1e-05, momentum=0.1, affine=True, track_running_stats=True)
                                                 (conv3): Conv2d(128, 512, kernel_size=(1, 1), stride=(1, 1), bias=False)
                                                 (bn3): BatchNorm2d(512, eps=1e-05, momentum=0.1, affine=True, track_running_stats=True)
                                                 (relu): ReLU(inplace=True)
                                               )
                                               (7): Bottleneck(
                                                 (conv1): Conv2d(512, 128, kernel_size=(1, 1), stride=(1, 1), bias=False)
                                                 (bn1): BatchNorm2d(128, eps=1e-05, momentum=0.1, affine=True, track_running_stats=True)
                                                 (conv2): Conv2d(128, 128, kernel_size=(3, 3), stride=(1, 1), padding=(1, 1), bias=False)
                                                 (bn2): BatchNorm2d(128, eps=1e-05, momentum=0.1, affine=True, track_running_stats=True)
                                                 (conv3): Conv2d(128, 512, kernel_size=(1, 1), stride=(1, 1), bias=False)
                                                 (bn3): BatchNorm2d(512, eps=1e-05, momentum=0.1, affine=True, track_running_stats=True)
                                                 (relu): ReLU(inplace=True)
                                               )
                                             )
                                             (6): Sequential(
                                               (0): Bottleneck(
                                                 (conv1): Conv2d(512, 256, kernel_size=(1, 1), stride=(1, 1), bias=False)
                                                 (bn1): BatchNorm2d(256, eps=1e-05, momentum=0.1, affine=True, track_running_stats=True)
                                                 (conv2): Conv2d(256, 256, kernel_size=(3, 3), stride=(2, 2), padding=(1, 1), bias=False)
                                                 (bn2): BatchNorm2d(256, eps=1e-05, momentum=0.1, affine=True, track_running_stats=True)
                                                 (conv3): Conv2d(256, 1024, kernel_size=(1, 1), stride=(1, 1), bias=False)
                                                 (bn3): BatchNorm2d(1024, eps=1e-05, momentum=0.1, affine=True, track_running_stats=True)
                                                 (relu): ReLU(inplace=True)
                                                 (downsample): Sequential(
                                                   (0): Conv2d(512, 1024, kernel_size=(1, 1), stride=(2, 2), bias=False)
                                                   (1): BatchNorm2d(1024, eps=1e-05, momentum=0.1, affine=True, track_running_stats=True)
                                                 )
                                               )
                                               (1): Bottleneck(
                                                 (conv1): Conv2d(1024, 256, kernel_size=(1, 1), stride=(1, 1), bias=False)
                                                 (bn1): BatchNorm2d(256, eps=1e-05, momentum=0.1, affine=True, track_running_stats=True)
                                                 (conv2): Conv2d(256, 256, kernel_size=(3, 3), stride=(1, 1), padding=(1, 1), bias=False)
                                                 (bn2): BatchNorm2d(256, eps=1e-05, momentum=0.1, affine=True, track_running_stats=True)
                                                 (conv3): Conv2d(256, 1024, kernel_size=(1, 1), stride=(1, 1), bias=False)
                                                 (bn3): BatchNorm2d(1024, eps=1e-05, momentum=0.1, affine=True, track_running_stats=True)
                                                 (relu): ReLU(inplace=True)
                                               )
                                               (2): Bottleneck(
                                                 (conv1): Conv2d(1024, 256, kernel_size=(1, 1), stride=(1, 1), bias=False)
                                                 (bn1): BatchNorm2d(256, eps=1e-05, momentum=0.1, affine=True, track_running_stats=True)
                                                 (conv2): Conv2d(256, 256, kernel_size=(3, 3), stride=(1, 1), padding=(1, 1), bias=False)
                                                 (bn2): BatchNorm2d(256, eps=1e-05, momentum=0.1, affine=True, track_running_stats=True)
                                                 (conv3): Conv2d(256, 1024, kernel_size=(1, 1), stride=(1, 1), bias=False)
                                                 (bn3): BatchNorm2d(1024, eps=1e-05, momentum=0.1, affine=True, track_running_stats=True)
                                                 (relu): ReLU(inplace=True)
                                               )
                                               (3): Bottleneck(
                                                 (conv1): Conv2d(1024, 256, kernel_size=(1, 1), stride=(1, 1), bias=False)
                                                 (bn1): BatchNorm2d(256, eps=1e-05, momentum=0.1, affine=True, track_running_stats=True)
                                                 (conv2): Conv2d(256, 256, kernel_size=(3, 3), stride=(1, 1), padding=(1, 1), bias=False)
                                                 (bn2): BatchNorm2d(256, eps=1e-05, momentum=0.1, affine=True, track_running_stats=True)
                                                 (conv3): Conv2d(256, 1024, kernel_size=(1, 1), stride=(1, 1), bias=False)
                                                 (bn3): BatchNorm2d(1024, eps=1e-05, momentum=0.1, affine=True, track_running_stats=True)
                                                 (relu): ReLU(inplace=True)
                                               )
                                               (4): Bottleneck(
                                                 (conv1): Conv2d(1024, 256, kernel_size=(1, 1), stride=(1, 1), bias=False)
                                                 (bn1): BatchNorm2d(256, eps=1e-05, momentum=0.1, affine=True, track_running_stats=True)
                                                 (conv2): Conv2d(256, 256, kernel_size=(3, 3), stride=(1, 1), padding=(1, 1), bias=False)
                                                 (bn2): BatchNorm2d(256, eps=1e-05, momentum=0.1, affine=True, track_running_stats=True)
                                                 (conv3): Conv2d(256, 1024, kernel_size=(1, 1), stride=(1, 1), bias=False)
                                                 (bn3): BatchNorm2d(1024, eps=1e-05, momentum=0.1, affine=True, track_running_stats=True)
                                                 (relu): ReLU(inplace=True)
                                               )
                                               (5): Bottleneck(
                                                 (conv1): Conv2d(1024, 256, kernel_size=(1, 1), stride=(1, 1), bias=False)
                                                 (bn1): BatchNorm2d(256, eps=1e-05, momentum=0.1, affine=True, track_running_stats=True)
                                                 (conv2): Conv2d(256, 256, kernel_size=(3, 3), stride=(1, 1), padding=(1, 1), bias=False)
                                                 (bn2): BatchNorm2d(256, eps=1e-05, momentum=0.1, affine=True, track_running_stats=True)
                                                 (conv3): Conv2d(256, 1024, kernel_size=(1, 1), stride=(1, 1), bias=False)
                                                 (bn3): BatchNorm2d(1024, eps=1e-05, momentum=0.1, affine=True, track_running_stats=True)
                                                 (relu): ReLU(inplace=True)
                                               )
                                               (6): Bottleneck(
                                                 (conv1): Conv2d(1024, 256, kernel_size=(1, 1), stride=(1, 1), bias=False)
                                                 (bn1): BatchNorm2d(256, eps=1e-05, momentum=0.1, affine=True, track_running_stats=True)
                                                 (conv2): Conv2d(256, 256, kernel_size=(3, 3), stride=(1, 1), padding=(1, 1), bias=False)
                                                 (bn2): BatchNorm2d(256, eps=1e-05, momentum=0.1, affine=True, track_running_stats=True)
                                                 (conv3): Conv2d(256, 1024, kernel_size=(1, 1), stride=(1, 1), bias=False)
                                                 (bn3): BatchNorm2d(1024, eps=1e-05, momentum=0.1, affine=True, track_running_stats=True)
                                                 (relu): ReLU(inplace=True)
                                               )
                                               (7): Bottleneck(
                                                 (conv1): Conv2d(1024, 256, kernel_size=(1, 1), stride=(1, 1), bias=False)
                                                 (bn1): BatchNorm2d(256, eps=1e-05, momentum=0.1, affine=True, track_running_stats=True)
                                                 (conv2): Conv2d(256, 256, kernel_size=(3, 3), stride=(1, 1), padding=(1, 1), bias=False)
                                                 (bn2): BatchNorm2d(256, eps=1e-05, momentum=0.1, affine=True, track_running_stats=True)
                                                 (conv3): Conv2d(256, 1024, kernel_size=(1, 1), stride=(1, 1), bias=False)
                                                 (bn3): BatchNorm2d(1024, eps=1e-05, momentum=0.1, affine=True, track_running_stats=True)
                                                 (relu): ReLU(inplace=True)
                                               )
                                               (8): Bottleneck(
                                                 (conv1): Conv2d(1024, 256, kernel_size=(1, 1), stride=(1, 1), bias=False)
                                                 (bn1): BatchNorm2d(256, eps=1e-05, momentum=0.1, affine=True, track_running_stats=True)
                                                 (conv2): Conv2d(256, 256, kernel_size=(3, 3), stride=(1, 1), padding=(1, 1), bias=False)
                                                 (bn2): BatchNorm2d(256, eps=1e-05, momentum=0.1, affine=True, track_running_stats=True)
                                                 (conv3): Conv2d(256, 1024, kernel_size=(1, 1), stride=(1, 1), bias=False)
                                                 (bn3): BatchNorm2d(1024, eps=1e-05, momentum=0.1, affine=True, track_running_stats=True)
                                                 (relu): ReLU(inplace=True)
                                               )
                                               (9): Bottleneck(
                                                 (conv1): Conv2d(1024, 256, kernel_size=(1, 1), stride=(1, 1), bias=False)
                                                 (bn1): BatchNorm2d(256, eps=1e-05, momentum=0.1, affine=True, track_running_stats=True)
                                                 (conv2): Conv2d(256, 256, kernel_size=(3, 3), stride=(1, 1), padding=(1, 1), bias=False)
                                                 (bn2): BatchNorm2d(256, eps=1e-05, momentum=0.1, affine=True, track_running_stats=True)
                                                 (conv3): Conv2d(256, 1024, kernel_size=(1, 1), stride=(1, 1), bias=False)
                                                 (bn3): BatchNorm2d(1024, eps=1e-05, momentum=0.1, affine=True, track_running_stats=True)
                                                 (relu): ReLU(inplace=True)
                                               )
                                               (10): Bottleneck(
                                                 (conv1): Conv2d(1024, 256, kernel_size=(1, 1), stride=(1, 1), bias=False)
                                                 (bn1): BatchNorm2d(256, eps=1e-05, momentum=0.1, affine=True, track_running_stats=True)
                                                 (conv2): Conv2d(256, 256, kernel_size=(3, 3), stride=(1, 1), padding=(1, 1), bias=False)
                                                 (bn2): BatchNorm2d(256, eps=1e-05, momentum=0.1, affine=True, track_running_stats=True)
                                                 (conv3): Conv2d(256, 1024, kernel_size=(1, 1), stride=(1, 1), bias=False)
                                                 (bn3): BatchNorm2d(1024, eps=1e-05, momentum=0.1, affine=True, track_running_stats=True)
                                                 (relu): ReLU(inplace=True)
                                               )
                                               (11): Bottleneck(
                                                 (conv1): Conv2d(1024, 256, kernel_size=(1, 1), stride=(1, 1), bias=False)
                                                 (bn1): BatchNorm2d(256, eps=1e-05, momentum=0.1, affine=True, track_running_stats=True)
                                                 (conv2): Conv2d(256, 256, kernel_size=(3, 3), stride=(1, 1), padding=(1, 1), bias=False)
                                                 (bn2): BatchNorm2d(256, eps=1e-05, momentum=0.1, affine=True, track_running_stats=True)
                                                 (conv3): Conv2d(256, 1024, kernel_size=(1, 1), stride=(1, 1), bias=False)
                                                 (bn3): BatchNorm2d(1024, eps=1e-05, momentum=0.1, affine=True, track_running_stats=True)
                                                 (relu): ReLU(inplace=True)
                                               )
                                               (12): Bottleneck(
                                                 (conv1): Conv2d(1024, 256, kernel_size=(1, 1), stride=(1, 1), bias=False)
                                                 (bn1): BatchNorm2d(256, eps=1e-05, momentum=0.1, affine=True, track_running_stats=True)
                                                 (conv2): Conv2d(256, 256, kernel_size=(3, 3), stride=(1, 1), padding=(1, 1), bias=False)
                                                 (bn2): BatchNorm2d(256, eps=1e-05, momentum=0.1, affine=True, track_running_stats=True)
                                                 (conv3): Conv2d(256, 1024, kernel_size=(1, 1), stride=(1, 1), bias=False)
                                                 (bn3): BatchNorm2d(1024, eps=1e-05, momentum=0.1, affine=True, track_running_stats=True)
                                                 (relu): ReLU(inplace=True)
                                               )
                                               (13): Bottleneck(
                                                 (conv1): Conv2d(1024, 256, kernel_size=(1, 1), stride=(1, 1), bias=False)
                                                 (bn1): BatchNorm2d(256, eps=1e-05, momentum=0.1, affine=True, track_running_stats=True)
                                                 (conv2): Conv2d(256, 256, kernel_size=(3, 3), stride=(1, 1), padding=(1, 1), bias=False)
                                                 (bn2): BatchNorm2d(256, eps=1e-05, momentum=0.1, affine=True, track_running_stats=True)
                                                 (conv3): Conv2d(256, 1024, kernel_size=(1, 1), stride=(1, 1), bias=False)
                                                 (bn3): BatchNorm2d(1024, eps=1e-05, momentum=0.1, affine=True, track_running_stats=True)
                                                 (relu): ReLU(inplace=True)
                                               )
                                               (14): Bottleneck(
                                                 (conv1): Conv2d(1024, 256, kernel_size=(1, 1), stride=(1, 1), bias=False)
                                                 (bn1): BatchNorm2d(256, eps=1e-05, momentum=0.1, affine=True, track_running_stats=True)
                                                 (conv2): Conv2d(256, 256, kernel_size=(3, 3), stride=(1, 1), padding=(1, 1), bias=False)
                                                 (bn2): BatchNorm2d(256, eps=1e-05, momentum=0.1, affine=True, track_running_stats=True)
                                                 (conv3): Conv2d(256, 1024, kernel_size=(1, 1), stride=(1, 1), bias=False)
                                                 (bn3): BatchNorm2d(1024, eps=1e-05, momentum=0.1, affine=True, track_running_stats=True)
                                                 (relu): ReLU(inplace=True)
                                               )
                                               (15): Bottleneck(
                                                 (conv1): Conv2d(1024, 256, kernel_size=(1, 1), stride=(1, 1), bias=False)
                                                 (bn1): BatchNorm2d(256, eps=1e-05, momentum=0.1, affine=True, track_running_stats=True)
                                                 (conv2): Conv2d(256, 256, kernel_size=(3, 3), stride=(1, 1), padding=(1, 1), bias=False)
                                                 (bn2): BatchNorm2d(256, eps=1e-05, momentum=0.1, affine=True, track_running_stats=True)
                                                 (conv3): Conv2d(256, 1024, kernel_size=(1, 1), stride=(1, 1), bias=False)
                                                 (bn3): BatchNorm2d(1024, eps=1e-05, momentum=0.1, affine=True, track_running_stats=True)
                                                 (relu): ReLU(inplace=True)
                                               )
                                               (16): Bottleneck(
                                                 (conv1): Conv2d(1024, 256, kernel_size=(1, 1), stride=(1, 1), bias=False)
                                                 (bn1): BatchNorm2d(256, eps=1e-05, momentum=0.1, affine=True, track_running_stats=True)
                                                 (conv2): Conv2d(256, 256, kernel_size=(3, 3), stride=(1, 1), padding=(1, 1), bias=False)
                                                 (bn2): BatchNorm2d(256, eps=1e-05, momentum=0.1, affine=True, track_running_stats=True)
                                                 (conv3): Conv2d(256, 1024, kernel_size=(1, 1), stride=(1, 1), bias=False)
                                                 (bn3): BatchNorm2d(1024, eps=1e-05, momentum=0.1, affine=True, track_running_stats=True)
                                                 (relu): ReLU(inplace=True)
                                               )
                                               (17): Bottleneck(
                                                 (conv1): Conv2d(1024, 256, kernel_size=(1, 1), stride=(1, 1), bias=False)
                                                 (bn1): BatchNorm2d(256, eps=1e-05, momentum=0.1, affine=True, track_running_stats=True)
                                                 (conv2): Conv2d(256, 256, kernel_size=(3, 3), stride=(1, 1), padding=(1, 1), bias=False)
                                                 (bn2): BatchNorm2d(256, eps=1e-05, momentum=0.1, affine=True, track_running_stats=True)
                                                 (conv3): Conv2d(256, 1024, kernel_size=(1, 1), stride=(1, 1), bias=False)
                                                 (bn3): BatchNorm2d(1024, eps=1e-05, momentum=0.1, affine=True, track_running_stats=True)
                                                 (relu): ReLU(inplace=True)
                                               )
                                               (18): Bottleneck(
                                                 (conv1): Conv2d(1024, 256, kernel_size=(1, 1), stride=(1, 1), bias=False)
                                                 (bn1): BatchNorm2d(256, eps=1e-05, momentum=0.1, affine=True, track_running_stats=True)
                                                 (conv2): Conv2d(256, 256, kernel_size=(3, 3), stride=(1, 1), padding=(1, 1), bias=False)
                                                 (bn2): BatchNorm2d(256, eps=1e-05, momentum=0.1, affine=True, track_running_stats=True)
                                                 (conv3): Conv2d(256, 1024, kernel_size=(1, 1), stride=(1, 1), bias=False)
                                                 (bn3): BatchNorm2d(1024, eps=1e-05, momentum=0.1, affine=True, track_running_stats=True)
                                                 (relu): ReLU(inplace=True)
                                               )
                                               (19): Bottleneck(
                                                 (conv1): Conv2d(1024, 256, kernel_size=(1, 1), stride=(1, 1), bias=False)
                                                 (bn1): BatchNorm2d(256, eps=1e-05, momentum=0.1, affine=True, track_running_stats=True)
                                                 (conv2): Conv2d(256, 256, kernel_size=(3, 3), stride=(1, 1), padding=(1, 1), bias=False)
                                                 (bn2): BatchNorm2d(256, eps=1e-05, momentum=0.1, affine=True, track_running_stats=True)
                                                 (conv3): Conv2d(256, 1024, kernel_size=(1, 1), stride=(1, 1), bias=False)
                                                 (bn3): BatchNorm2d(1024, eps=1e-05, momentum=0.1, affine=True, track_running_stats=True)
                                                 (relu): ReLU(inplace=True)
                                               )
                                               (20): Bottleneck(
                                                 (conv1): Conv2d(1024, 256, kernel_size=(1, 1), stride=(1, 1), bias=False)
                                                 (bn1): BatchNorm2d(256, eps=1e-05, momentum=0.1, affine=True, track_running_stats=True)
                                                 (conv2): Conv2d(256, 256, kernel_size=(3, 3), stride=(1, 1), padding=(1, 1), bias=False)
                                                 (bn2): BatchNorm2d(256, eps=1e-05, momentum=0.1, affine=True, track_running_stats=True)
                                                 (conv3): Conv2d(256, 1024, kernel_size=(1, 1), stride=(1, 1), bias=False)
                                                 (bn3): BatchNorm2d(1024, eps=1e-05, momentum=0.1, affine=True, track_running_stats=True)
                                                 (relu): ReLU(inplace=True)
                                               )
                                               (21): Bottleneck(
                                                 (conv1): Conv2d(1024, 256, kernel_size=(1, 1), stride=(1, 1), bias=False)
                                                 (bn1): BatchNorm2d(256, eps=1e-05, momentum=0.1, affine=True, track_running_stats=True)
                                                 (conv2): Conv2d(256, 256, kernel_size=(3, 3), stride=(1, 1), padding=(1, 1), bias=False)
                                                 (bn2): BatchNorm2d(256, eps=1e-05, momentum=0.1, affine=True, track_running_stats=True)
                                                 (conv3): Conv2d(256, 1024, kernel_size=(1, 1), stride=(1, 1), bias=False)
                                                 (bn3): BatchNorm2d(1024, eps=1e-05, momentum=0.1, affine=True, track_running_stats=True)
                                                 (relu): ReLU(inplace=True)
                                               )
                                               (22): Bottleneck(
                                                 (conv1): Conv2d(1024, 256, kernel_size=(1, 1), stride=(1, 1), bias=False)
                                                 (bn1): BatchNorm2d(256, eps=1e-05, momentum=0.1, affine=True, track_running_stats=True)
                                                 (conv2): Conv2d(256, 256, kernel_size=(3, 3), stride=(1, 1), padding=(1, 1), bias=False)
                                                 (bn2): BatchNorm2d(256, eps=1e-05, momentum=0.1, affine=True, track_running_stats=True)
                                                 (conv3): Conv2d(256, 1024, kernel_size=(1, 1), stride=(1, 1), bias=False)
                                                 (bn3): BatchNorm2d(1024, eps=1e-05, momentum=0.1, affine=True, track_running_stats=True)
                                                 (relu): ReLU(inplace=True)
                                               )
                                               (23): Bottleneck(
                                                 (conv1): Conv2d(1024, 256, kernel_size=(1, 1), stride=(1, 1), bias=False)
                                                 (bn1): BatchNorm2d(256, eps=1e-05, momentum=0.1, affine=True, track_running_stats=True)
                                                 (conv2): Conv2d(256, 256, kernel_size=(3, 3), stride=(1, 1), padding=(1, 1), bias=False)
                                                 (bn2): BatchNorm2d(256, eps=1e-05, momentum=0.1, affine=True, track_running_stats=True)
                                                 (conv3): Conv2d(256, 1024, kernel_size=(1, 1), stride=(1, 1), bias=False)
                                                 (bn3): BatchNorm2d(1024, eps=1e-05, momentum=0.1, affine=True, track_running_stats=True)
                                                 (relu): ReLU(inplace=True)
                                               )
                                               (24): Bottleneck(
                                                 (conv1): Conv2d(1024, 256, kernel_size=(1, 1), stride=(1, 1), bias=False)
                                                 (bn1): BatchNorm2d(256, eps=1e-05, momentum=0.1, affine=True, track_running_stats=True)
                                                 (conv2): Conv2d(256, 256, kernel_size=(3, 3), stride=(1, 1), padding=(1, 1), bias=False)
                                                 (bn2): BatchNorm2d(256, eps=1e-05, momentum=0.1, affine=True, track_running_stats=True)
                                                 (conv3): Conv2d(256, 1024, kernel_size=(1, 1), stride=(1, 1), bias=False)
                                                 (bn3): BatchNorm2d(1024, eps=1e-05, momentum=0.1, affine=True, track_running_stats=True)
                                                 (relu): ReLU(inplace=True)
                                               )
                                               (25): Bottleneck(
                                                 (conv1): Conv2d(1024, 256, kernel_size=(1, 1), stride=(1, 1), bias=False)
                                                 (bn1): BatchNorm2d(256, eps=1e-05, momentum=0.1, affine=True, track_running_stats=True)
                                                 (conv2): Conv2d(256, 256, kernel_size=(3, 3), stride=(1, 1), padding=(1, 1), bias=False)
                                                 (bn2): BatchNorm2d(256, eps=1e-05, momentum=0.1, affine=True, track_running_stats=True)
                                                 (conv3): Conv2d(256, 1024, kernel_size=(1, 1), stride=(1, 1), bias=False)
                                                 (bn3): BatchNorm2d(1024, eps=1e-05, momentum=0.1, affine=True, track_running_stats=True)
                                                 (relu): ReLU(inplace=True)
                                               )
                                               (26): Bottleneck(
                                                 (conv1): Conv2d(1024, 256, kernel_size=(1, 1), stride=(1, 1), bias=False)
                                                 (bn1): BatchNorm2d(256, eps=1e-05, momentum=0.1, affine=True, track_running_stats=True)
                                                 (conv2): Conv2d(256, 256, kernel_size=(3, 3), stride=(1, 1), padding=(1, 1), bias=False)
                                                 (bn2): BatchNorm2d(256, eps=1e-05, momentum=0.1, affine=True, track_running_stats=True)
                                                 (conv3): Conv2d(256, 1024, kernel_size=(1, 1), stride=(1, 1), bias=False)
                                                 (bn3): BatchNorm2d(1024, eps=1e-05, momentum=0.1, affine=True, track_running_stats=True)
                                                 (relu): ReLU(inplace=True)
                                               )
                                               (27): Bottleneck(
                                                 (conv1): Conv2d(1024, 256, kernel_size=(1, 1), stride=(1, 1), bias=False)
                                                 (bn1): BatchNorm2d(256, eps=1e-05, momentum=0.1, affine=True, track_running_stats=True)
                                                 (conv2): Conv2d(256, 256, kernel_size=(3, 3), stride=(1, 1), padding=(1, 1), bias=False)
                                                 (bn2): BatchNorm2d(256, eps=1e-05, momentum=0.1, affine=True, track_running_stats=True)
                                                 (conv3): Conv2d(256, 1024, kernel_size=(1, 1), stride=(1, 1), bias=False)
                                                 (bn3): BatchNorm2d(1024, eps=1e-05, momentum=0.1, affine=True, track_running_stats=True)
                                                 (relu): ReLU(inplace=True)
                                               )
                                               (28): Bottleneck(
                                                 (conv1): Conv2d(1024, 256, kernel_size=(1, 1), stride=(1, 1), bias=False)
                                                 (bn1): BatchNorm2d(256, eps=1e-05, momentum=0.1, affine=True, track_running_stats=True)
                                                 (conv2): Conv2d(256, 256, kernel_size=(3, 3), stride=(1, 1), padding=(1, 1), bias=False)
                                                 (bn2): BatchNorm2d(256, eps=1e-05, momentum=0.1, affine=True, track_running_stats=True)
                                                 (conv3): Conv2d(256, 1024, kernel_size=(1, 1), stride=(1, 1), bias=False)
                                                 (bn3): BatchNorm2d(1024, eps=1e-05, momentum=0.1, affine=True, track_running_stats=True)
                                                 (relu): ReLU(inplace=True)
                                               )
                                               (29): Bottleneck(
                                                 (conv1): Conv2d(1024, 256, kernel_size=(1, 1), stride=(1, 1), bias=False)
                                                 (bn1): BatchNorm2d(256, eps=1e-05, momentum=0.1, affine=True, track_running_stats=True)
                                                 (conv2): Conv2d(256, 256, kernel_size=(3, 3), stride=(1, 1), padding=(1, 1), bias=False)
                                                 (bn2): BatchNorm2d(256, eps=1e-05, momentum=0.1, affine=True, track_running_stats=True)
                                                 (conv3): Conv2d(256, 1024, kernel_size=(1, 1), stride=(1, 1), bias=False)
                                                 (bn3): BatchNorm2d(1024, eps=1e-05, momentum=0.1, affine=True, track_running_stats=True)
                                                 (relu): ReLU(inplace=True)
                                               )
                                               (30): Bottleneck(
                                                 (conv1): Conv2d(1024, 256, kernel_size=(1, 1), stride=(1, 1), bias=False)
                                                 (bn1): BatchNorm2d(256, eps=1e-05, momentum=0.1, affine=True, track_running_stats=True)
                                                 (conv2): Conv2d(256, 256, kernel_size=(3, 3), stride=(1, 1), padding=(1, 1), bias=False)
                                                 (bn2): BatchNorm2d(256, eps=1e-05, momentum=0.1, affine=True, track_running_stats=True)
                                                 (conv3): Conv2d(256, 1024, kernel_size=(1, 1), stride=(1, 1), bias=False)
                                                 (bn3): BatchNorm2d(1024, eps=1e-05, momentum=0.1, affine=True, track_running_stats=True)
                                                 (relu): ReLU(inplace=True)
                                               )
                                               (31): Bottleneck(
                                                 (conv1): Conv2d(1024, 256, kernel_size=(1, 1), stride=(1, 1), bias=False)
                                                 (bn1): BatchNorm2d(256, eps=1e-05, momentum=0.1, affine=True, track_running_stats=True)
                                                 (conv2): Conv2d(256, 256, kernel_size=(3, 3), stride=(1, 1), padding=(1, 1), bias=False)
                                                 (bn2): BatchNorm2d(256, eps=1e-05, momentum=0.1, affine=True, track_running_stats=True)
                                                 (conv3): Conv2d(256, 1024, kernel_size=(1, 1), stride=(1, 1), bias=False)
                                                 (bn3): BatchNorm2d(1024, eps=1e-05, momentum=0.1, affine=True, track_running_stats=True)
                                                 (relu): ReLU(inplace=True)
                                               )
                                               (32): Bottleneck(
                                                 (conv1): Conv2d(1024, 256, kernel_size=(1, 1), stride=(1, 1), bias=False)
                                                 (bn1): BatchNorm2d(256, eps=1e-05, momentum=0.1, affine=True, track_running_stats=True)
                                                 (conv2): Conv2d(256, 256, kernel_size=(3, 3), stride=(1, 1), padding=(1, 1), bias=False)
                                                 (bn2): BatchNorm2d(256, eps=1e-05, momentum=0.1, affine=True, track_running_stats=True)
                                                 (conv3): Conv2d(256, 1024, kernel_size=(1, 1), stride=(1, 1), bias=False)
                                                 (bn3): BatchNorm2d(1024, eps=1e-05, momentum=0.1, affine=True, track_running_stats=True)
                                                 (relu): ReLU(inplace=True)
                                               )
                                               (33): Bottleneck(
                                                 (conv1): Conv2d(1024, 256, kernel_size=(1, 1), stride=(1, 1), bias=False)
                                                 (bn1): BatchNorm2d(256, eps=1e-05, momentum=0.1, affine=True, track_running_stats=True)
                                                 (conv2): Conv2d(256, 256, kernel_size=(3, 3), stride=(1, 1), padding=(1, 1), bias=False)
                                                 (bn2): BatchNorm2d(256, eps=1e-05, momentum=0.1, affine=True, track_running_stats=True)
                                                 (conv3): Conv2d(256, 1024, kernel_size=(1, 1), stride=(1, 1), bias=False)
                                                 (bn3): BatchNorm2d(1024, eps=1e-05, momentum=0.1, affine=True, track_running_stats=True)
                                                 (relu): ReLU(inplace=True)
                                               )
                                               (34): Bottleneck(
                                                 (conv1): Conv2d(1024, 256, kernel_size=(1, 1), stride=(1, 1), bias=False)
                                                 (bn1): BatchNorm2d(256, eps=1e-05, momentum=0.1, affine=True, track_running_stats=True)
                                                 (conv2): Conv2d(256, 256, kernel_size=(3, 3), stride=(1, 1), padding=(1, 1), bias=False)
                                                 (bn2): BatchNorm2d(256, eps=1e-05, momentum=0.1, affine=True, track_running_stats=True)
                                                 (conv3): Conv2d(256, 1024, kernel_size=(1, 1), stride=(1, 1), bias=False)
                                                 (bn3): BatchNorm2d(1024, eps=1e-05, momentum=0.1, affine=True, track_running_stats=True)
                                                 (relu): ReLU(inplace=True)
                                               )
                                               (35): Bottleneck(
                                                 (conv1): Conv2d(1024, 256, kernel_size=(1, 1), stride=(1, 1), bias=False)
                                                 (bn1): BatchNorm2d(256, eps=1e-05, momentum=0.1, affine=True, track_running_stats=True)
                                                 (conv2): Conv2d(256, 256, kernel_size=(3, 3), stride=(1, 1), padding=(1, 1), bias=False)
                                                 (bn2): BatchNorm2d(256, eps=1e-05, momentum=0.1, affine=True, track_running_stats=True)
                                                 (conv3): Conv2d(256, 1024, kernel_size=(1, 1), stride=(1, 1), bias=False)
                                                 (bn3): BatchNorm2d(1024, eps=1e-05, momentum=0.1, affine=True, track_running_stats=True)
                                                 (relu): ReLU(inplace=True)
                                               )
                                             )
                                             (7): Sequential(
                                               (0): Bottleneck(
                                                 (conv1): Conv2d(1024, 512, kernel_size=(1, 1), stride=(1, 1), bias=False)
                                                 (bn1): BatchNorm2d(512, eps=1e-05, momentum=0.1, affine=True, track_running_stats=True)
                                                 (conv2): Conv2d(512, 512, kernel_size=(3, 3), stride=(2, 2), padding=(1, 1), bias=False)
                                                 (bn2): BatchNorm2d(512, eps=1e-05, momentum=0.1, affine=True, track_running_stats=True)
                                                 (conv3): Conv2d(512, 2048, kernel_size=(1, 1), stride=(1, 1), bias=False)
                                                 (bn3): BatchNorm2d(2048, eps=1e-05, momentum=0.1, affine=True, track_running_stats=True)
                                                 (relu): ReLU(inplace=True)
                                                 (downsample): Sequential(
                                                   (0): Conv2d(1024, 2048, kernel_size=(1, 1), stride=(2, 2), bias=False)
                                                   (1): BatchNorm2d(2048, eps=1e-05, momentum=0.1, affine=True, track_running_stats=True)
                                                 )
                                               )
                                               (1): Bottleneck(
                                                 (conv1): Conv2d(2048, 512, kernel_size=(1, 1), stride=(1, 1), bias=False)
                                                 (bn1): BatchNorm2d(512, eps=1e-05, momentum=0.1, affine=True, track_running_stats=True)
                                                 (conv2): Conv2d(512, 512, kernel_size=(3, 3), stride=(1, 1), padding=(1, 1), bias=False)
                                                 (bn2): BatchNorm2d(512, eps=1e-05, momentum=0.1, affine=True, track_running_stats=True)
                                                 (conv3): Conv2d(512, 2048, kernel_size=(1, 1), stride=(1, 1), bias=False)
                                                 (bn3): BatchNorm2d(2048, eps=1e-05, momentum=0.1, affine=True, track_running_stats=True)
                                                 (relu): ReLU(inplace=True)
                                               )
                                               (2): Bottleneck(
                                                 (conv1): Conv2d(2048, 512, kernel_size=(1, 1), stride=(1, 1), bias=False)
                                                 (bn1): BatchNorm2d(512, eps=1e-05, momentum=0.1, affine=True, track_running_stats=True)
                                                 (conv2): Conv2d(512, 512, kernel_size=(3, 3), stride=(1, 1), padding=(1, 1), bias=False)
                                                 (bn2): BatchNorm2d(512, eps=1e-05, momentum=0.1, affine=True, track_running_stats=True)
                                                 (conv3): Conv2d(512, 2048, kernel_size=(1, 1), stride=(1, 1), bias=False)
                                                 (bn3): BatchNorm2d(2048, eps=1e-05, momentum=0.1, affine=True, track_running_stats=True)
                                                 (relu): ReLU(inplace=True)
                                               )
                                             )
                                           )
                                           (pool): AdaptiveAvgPool2d(output_size=(3, 1))
                                         )
                                         (encoder): BertEncoder(
                                           (layer): ModuleList(
                                             (0): BertLayer(
                                               (attention): BertAttention(
                                                 (self): BertSelfAttention(
                                                   (query): Linear(in_features=768, out_features=768, bias=True)
                                                   (key): Linear(in_features=768, out_features=768, bias=True)
                                                   (value): Linear(in_features=768, out_features=768, bias=True)
                                                   (dropout): Dropout(p=0.1, inplace=False)
                                                 )
                                                 (output): BertSelfOutput(
                                                   (dense): Linear(in_features=768, out_features=768, bias=True)
                                                   (LayerNorm): BertLayerNorm()
                                                   (dropout): Dropout(p=0.1, inplace=False)
                                                 )
                                               )
                                               (intermediate): BertIntermediate(
                                                 (dense): Linear(in_features=768, out_features=3072, bias=True)
                                               )
                                               (output): BertOutput(
                                                 (dense): Linear(in_features=3072, out_features=768, bias=True)
                                                 (LayerNorm): BertLayerNorm()
                                                 (dropout): Dropout(p=0.1, inplace=False)
                                               )
                                             )
                                             (1): BertLayer(
                                               (attention): BertAttention(
                                                 (self): BertSelfAttention(
                                                   (query): Linear(in_features=768, out_features=768, bias=True)
                                                   (key): Linear(in_features=768, out_features=768, bias=True)
                                                   (value): Linear(in_features=768, out_features=768, bias=True)
                                                   (dropout): Dropout(p=0.1, inplace=False)
                                                 )
                                                 (output): BertSelfOutput(
                                                   (dense): Linear(in_features=768, out_features=768, bias=True)
                                                   (LayerNorm): BertLayerNorm()
                                                   (dropout): Dropout(p=0.1, inplace=False)
                                                 )
                                               )
                                               (intermediate): BertIntermediate(
                                                 (dense): Linear(in_features=768, out_features=3072, bias=True)
                                               )
                                               (output): BertOutput(
                                                 (dense): Linear(in_features=3072, out_features=768, bias=True)
                                                 (LayerNorm): BertLayerNorm()
                                                 (dropout): Dropout(p=0.1, inplace=False)
                                               )
                                             )
                                             (2): BertLayer(
                                               (attention): BertAttention(
                                                 (self): BertSelfAttention(
                                                   (query): Linear(in_features=768, out_features=768, bias=True)
                                                   (key): Linear(in_features=768, out_features=768, bias=True)
                                                   (value): Linear(in_features=768, out_features=768, bias=True)
                                                   (dropout): Dropout(p=0.1, inplace=False)
                                                 )
                                                 (output): BertSelfOutput(
                                                   (dense): Linear(in_features=768, out_features=768, bias=True)
                                                   (LayerNorm): BertLayerNorm()
                                                   (dropout): Dropout(p=0.1, inplace=False)
                                                 )
                                               )
                                               (intermediate): BertIntermediate(
                                                 (dense): Linear(in_features=768, out_features=3072, bias=True)
                                               )
                                               (output): BertOutput(
                                                 (dense): Linear(in_features=3072, out_features=768, bias=True)
                                                 (LayerNorm): BertLayerNorm()
                                                 (dropout): Dropout(p=0.1, inplace=False)
                                               )
                                             )
                                             (3): BertLayer(
                                               (attention): BertAttention(
                                                 (self): BertSelfAttention(
                                                   (query): Linear(in_features=768, out_features=768, bias=True)
                                                   (key): Linear(in_features=768, out_features=768, bias=True)
                                                   (value): Linear(in_features=768, out_features=768, bias=True)
                                                   (dropout): Dropout(p=0.1, inplace=False)
                                                 )
                                                 (output): BertSelfOutput(
                                                   (dense): Linear(in_features=768, out_features=768, bias=True)
                                                   (LayerNorm): BertLayerNorm()
                                                   (dropout): Dropout(p=0.1, inplace=False)
                                                 )
                                               )
                                               (intermediate): BertIntermediate(
                                                 (dense): Linear(in_features=768, out_features=3072, bias=True)
                                               )
                                               (output): BertOutput(
                                                 (dense): Linear(in_features=3072, out_features=768, bias=True)
                                                 (LayerNorm): BertLayerNorm()
                                                 (dropout): Dropout(p=0.1, inplace=False)
                                               )
                                             )
                                             (4): BertLayer(
                                               (attention): BertAttention(
                                                 (self): BertSelfAttention(
                                                   (query): Linear(in_features=768, out_features=768, bias=True)
                                                   (key): Linear(in_features=768, out_features=768, bias=True)
                                                   (value): Linear(in_features=768, out_features=768, bias=True)
                                                   (dropout): Dropout(p=0.1, inplace=False)
                                                 )
                                                 (output): BertSelfOutput(
                                                   (dense): Linear(in_features=768, out_features=768, bias=True)
                                                   (LayerNorm): BertLayerNorm()
                                                   (dropout): Dropout(p=0.1, inplace=False)
                                                 )
                                               )
                                               (intermediate): BertIntermediate(
                                                 (dense): Linear(in_features=768, out_features=3072, bias=True)
                                               )
                                               (output): BertOutput(
                                                 (dense): Linear(in_features=3072, out_features=768, bias=True)
                                                 (LayerNorm): BertLayerNorm()
                                                 (dropout): Dropout(p=0.1, inplace=False)
                                               )
                                             )
                                             (5): BertLayer(
                                               (attention): BertAttention(
                                                 (self): BertSelfAttention(
                                                   (query): Linear(in_features=768, out_features=768, bias=True)
                                                   (key): Linear(in_features=768, out_features=768, bias=True)
                                                   (value): Linear(in_features=768, out_features=768, bias=True)
                                                   (dropout): Dropout(p=0.1, inplace=False)
                                                 )
                                                 (output): BertSelfOutput(
                                                   (dense): Linear(in_features=768, out_features=768, bias=True)
                                                   (LayerNorm): BertLayerNorm()
                                                   (dropout): Dropout(p=0.1, inplace=False)
                                                 )
                                               )
                                               (intermediate): BertIntermediate(
                                                 (dense): Linear(in_features=768, out_features=3072, bias=True)
                                               )
                                               (output): BertOutput(
                                                 (dense): Linear(in_features=3072, out_features=768, bias=True)
                                                 (LayerNorm): BertLayerNorm()
                                                 (dropout): Dropout(p=0.1, inplace=False)
                                               )
                                             )
                                             (6): BertLayer(
                                               (attention): BertAttention(
                                                 (self): BertSelfAttention(
                                                   (query): Linear(in_features=768, out_features=768, bias=True)
                                                   (key): Linear(in_features=768, out_features=768, bias=True)
                                                   (value): Linear(in_features=768, out_features=768, bias=True)
                                                   (dropout): Dropout(p=0.1, inplace=False)
                                                 )
                                                 (output): BertSelfOutput(
                                                   (dense): Linear(in_features=768, out_features=768, bias=True)
                                                   (LayerNorm): BertLayerNorm()
                                                   (dropout): Dropout(p=0.1, inplace=False)
                                                 )
                                               )
                                               (intermediate): BertIntermediate(
                                                 (dense): Linear(in_features=768, out_features=3072, bias=True)
                                               )
                                               (output): BertOutput(
                                                 (dense): Linear(in_features=3072, out_features=768, bias=True)
                                                 (LayerNorm): BertLayerNorm()
                                                 (dropout): Dropout(p=0.1, inplace=False)
                                               )
                                             )
                                             (7): BertLayer(
                                               (attention): BertAttention(
                                                 (self): BertSelfAttention(
                                                   (query): Linear(in_features=768, out_features=768, bias=True)
                                                   (key): Linear(in_features=768, out_features=768, bias=True)
                                                   (value): Linear(in_features=768, out_features=768, bias=True)
                                                   (dropout): Dropout(p=0.1, inplace=False)
                                                 )
                                                 (output): BertSelfOutput(
                                                   (dense): Linear(in_features=768, out_features=768, bias=True)
                                                   (LayerNorm): BertLayerNorm()
                                                   (dropout): Dropout(p=0.1, inplace=False)
                                                 )
                                               )
                                               (intermediate): BertIntermediate(
                                                 (dense): Linear(in_features=768, out_features=3072, bias=True)
                                               )
                                               (output): BertOutput(
                                                 (dense): Linear(in_features=3072, out_features=768, bias=True)
                                                 (LayerNorm): BertLayerNorm()
                                                 (dropout): Dropout(p=0.1, inplace=False)
                                               )
                                             )
                                             (8): BertLayer(
                                               (attention): BertAttention(
                                                 (self): BertSelfAttention(
                                                   (query): Linear(in_features=768, out_features=768, bias=True)
                                                   (key): Linear(in_features=768, out_features=768, bias=True)
                                                   (value): Linear(in_features=768, out_features=768, bias=True)
                                                   (dropout): Dropout(p=0.1, inplace=False)
                                                 )
                                                 (output): BertSelfOutput(
                                                   (dense): Linear(in_features=768, out_features=768, bias=True)
                                                   (LayerNorm): BertLayerNorm()
                                                   (dropout): Dropout(p=0.1, inplace=False)
                                                 )
                                               )
                                               (intermediate): BertIntermediate(
                                                 (dense): Linear(in_features=768, out_features=3072, bias=True)
                                               )
                                               (output): BertOutput(
                                                 (dense): Linear(in_features=3072, out_features=768, bias=True)
                                                 (LayerNorm): BertLayerNorm()
                                                 (dropout): Dropout(p=0.1, inplace=False)
                                               )
                                             )
                                             (9): BertLayer(
                                               (attention): BertAttention(
                                                 (self): BertSelfAttention(
                                                   (query): Linear(in_features=768, out_features=768, bias=True)
                                                   (key): Linear(in_features=768, out_features=768, bias=True)
                                                   (value): Linear(in_features=768, out_features=768, bias=True)
                                                   (dropout): Dropout(p=0.1, inplace=False)
                                                 )
                                                 (output): BertSelfOutput(
                                                   (dense): Linear(in_features=768, out_features=768, bias=True)
                                                   (LayerNorm): BertLayerNorm()
                                                   (dropout): Dropout(p=0.1, inplace=False)
                                                 )
                                               )
                                               (intermediate): BertIntermediate(
                                                 (dense): Linear(in_features=768, out_features=3072, bias=True)
                                               )
                                               (output): BertOutput(
                                                 (dense): Linear(in_features=3072, out_features=768, bias=True)
                                                 (LayerNorm): BertLayerNorm()
                                                 (dropout): Dropout(p=0.1, inplace=False)
                                               )
                                             )
                                             (10): BertLayer(
                                               (attention): BertAttention(
                                                 (self): BertSelfAttention(
                                                   (query): Linear(in_features=768, out_features=768, bias=True)
                                                   (key): Linear(in_features=768, out_features=768, bias=True)
                                                   (value): Linear(in_features=768, out_features=768, bias=True)
                                                   (dropout): Dropout(p=0.1, inplace=False)
                                                 )
                                                 (output): BertSelfOutput(
                                                   (dense): Linear(in_features=768, out_features=768, bias=True)
                                                   (LayerNorm): BertLayerNorm()
                                                   (dropout): Dropout(p=0.1, inplace=False)
                                                 )
                                               )
                                               (intermediate): BertIntermediate(
                                                 (dense): Linear(in_features=768, out_features=3072, bias=True)
                                               )
                                               (output): BertOutput(
                                                 (dense): Linear(in_features=3072, out_features=768, bias=True)
                                                 (LayerNorm): BertLayerNorm()
                                                 (dropout): Dropout(p=0.1, inplace=False)
                                               )
                                             )
                                             (11): BertLayer(
                                               (attention): BertAttention(
                                                 (self): BertSelfAttention(
                                                   (query): Linear(in_features=768, out_features=768, bias=True)
                                                   (key): Linear(in_features=768, out_features=768, bias=True)
                                                   (value): Linear(in_features=768, out_features=768, bias=True)
                                                   (dropout): Dropout(p=0.1, inplace=False)
                                                 )
                                                 (output): BertSelfOutput(
                                                   (dense): Linear(in_features=768, out_features=768, bias=True)
                                                   (LayerNorm): BertLayerNorm()
                                                   (dropout): Dropout(p=0.1, inplace=False)
                                                 )
                                               )
                                               (intermediate): BertIntermediate(
                                                 (dense): Linear(in_features=768, out_features=3072, bias=True)
                                               )
                                               (output): BertOutput(
                                                 (dense): Linear(in_features=3072, out_features=768, bias=True)
                                                 (LayerNorm): BertLayerNorm()
                                                 (dropout): Dropout(p=0.1, inplace=False)
                                               )
                                             )
                                           )
                                         )
                                         (pooler): BertPooler(
                                           (dense): Linear(in_features=768, out_features=768, bias=True)
                                           (activation): Tanh()
                                         )
                                         (clf): Sequential(
                                           (0): Linear(in_features=768, out_features=256, bias=True)
                                           (1): ReLU()
                                           (2): Linear(in_features=256, out_features=128, bias=True)
                                           (3): ReLU()
                                           (4): Linear(in_features=128, out_features=25, bias=True)
                                         )
                                       )
                                       (clf): Linear(in_features=768, out_features=25, bias=True)
                                     )
INFO - 04/18/23 22:06:19 - 0:00:00 - Training..
INFO - 04/18/23 22:09:48 - 0:00:00 - batch_sz: 4
                                     bert_model: bert-base-uncased
                                     data_path: /home/taysin/Documents/personal/mmbt/data/
                                     drop_img_percent: 0.0
                                     dropout: 0.1
…
                                     task_type: multilabel
                                     train_data_len: 15513
                                     vocab: <mmbt.data.vocab.Vocab object at 0x7f1e7c6029d0>
                                     vocab_sz: 30522
                                     warmup: 0.1
                                     weight_classes: 1
INFO - 04/18/23 23:22:40 - 0:00:00 - MultimodalBertClf(
                                       (enc): MultimodalBertEncoder(
                                         (txt_embeddings): BertEmbeddings(
                                           (word_embeddings): Embedding(30522, 768, padding_idx=0)
                                           (position_embeddings): Embedding(512, 768)
                                           (token_type_embeddings): Embedding(2, 768)
                                           (LayerNorm): BertLayerNorm()
                                           (dropout): Dropout(p=0.1, inplace=False)
                                         )
                                         (img_embeddings): ImageBertEmbeddings(
                                           (img_embeddings): Linear(in_features=2048, out_features=768, bias=True)
                                           (position_embeddings): Embedding(512, 768)
                                           (token_type_embeddings): Embedding(2, 768)
                                           (word_embeddings): Embedding(30522, 768, padding_idx=0)
                                           (LayerNorm): BertLayerNorm()
                                           (dropout): Dropout(p=0.1, inplace=False)
                                         )
                                         (img_encoder): ImageEncoder(
                                           (model): Sequential(
                                             (0): Conv2d(3, 64, kernel_size=(7, 7), stride=(2, 2), padding=(3, 3), bias=False)
                                             (1): BatchNorm2d(64, eps=1e-05, momentum=0.1, affine=True, track_running_stats=True)
                                             (2): ReLU(inplace=True)
                                             (3): MaxPool2d(kernel_size=3, stride=2, padding=1, dilation=1, ceil_mode=False)
                                             (4): Sequential(
                                               (0): Bottleneck(
                                                 (conv1): Conv2d(64, 64, kernel_size=(1, 1), stride=(1, 1), bias=False)
                                                 (bn1): BatchNorm2d(64, eps=1e-05, momentum=0.1, affine=True, track_running_stats=True)
                                                 (conv2): Conv2d(64, 64, kernel_size=(3, 3), stride=(1, 1), padding=(1, 1), bias=False)
                                                 (bn2): BatchNorm2d(64, eps=1e-05, momentum=0.1, affine=True, track_running_stats=True)
                                                 (conv3): Conv2d(64, 256, kernel_size=(1, 1), stride=(1, 1), bias=False)
                                                 (bn3): BatchNorm2d(256, eps=1e-05, momentum=0.1, affine=True, track_running_stats=True)
                                                 (relu): ReLU(inplace=True)
                                                 (downsample): Sequential(
                                                   (0): Conv2d(64, 256, kernel_size=(1, 1), stride=(1, 1), bias=False)
                                                   (1): BatchNorm2d(256, eps=1e-05, momentum=0.1, affine=True, track_running_stats=True)
                                                 )
                                               )
                                               (1): Bottleneck(
                                                 (conv1): Conv2d(256, 64, kernel_size=(1, 1), stride=(1, 1), bias=False)
                                                 (bn1): BatchNorm2d(64, eps=1e-05, momentum=0.1, affine=True, track_running_stats=True)
                                                 (conv2): Conv2d(64, 64, kernel_size=(3, 3), stride=(1, 1), padding=(1, 1), bias=False)
                                                 (bn2): BatchNorm2d(64, eps=1e-05, momentum=0.1, affine=True, track_running_stats=True)
                                                 (conv3): Conv2d(64, 256, kernel_size=(1, 1), stride=(1, 1), bias=False)
                                                 (bn3): BatchNorm2d(256, eps=1e-05, momentum=0.1, affine=True, track_running_stats=True)
                                                 (relu): ReLU(inplace=True)
                                               )
                                               (2): Bottleneck(
                                                 (conv1): Conv2d(256, 64, kernel_size=(1, 1), stride=(1, 1), bias=False)
                                                 (bn1): BatchNorm2d(64, eps=1e-05, momentum=0.1, affine=True, track_running_stats=True)
                                                 (conv2): Conv2d(64, 64, kernel_size=(3, 3), stride=(1, 1), padding=(1, 1), bias=False)
                                                 (bn2): BatchNorm2d(64, eps=1e-05, momentum=0.1, affine=True, track_running_stats=True)
                                                 (conv3): Conv2d(64, 256, kernel_size=(1, 1), stride=(1, 1), bias=False)
                                                 (bn3): BatchNorm2d(256, eps=1e-05, momentum=0.1, affine=True, track_running_stats=True)
                                                 (relu): ReLU(inplace=True)
                                               )
                                             )
                                             (5): Sequential(
                                               (0): Bottleneck(
                                                 (conv1): Conv2d(256, 128, kernel_size=(1, 1), stride=(1, 1), bias=False)
                                                 (bn1): BatchNorm2d(128, eps=1e-05, momentum=0.1, affine=True, track_running_stats=True)
                                                 (conv2): Conv2d(128, 128, kernel_size=(3, 3), stride=(2, 2), padding=(1, 1), bias=False)
                                                 (bn2): BatchNorm2d(128, eps=1e-05, momentum=0.1, affine=True, track_running_stats=True)
                                                 (conv3): Conv2d(128, 512, kernel_size=(1, 1), stride=(1, 1), bias=False)
                                                 (bn3): BatchNorm2d(512, eps=1e-05, momentum=0.1, affine=True, track_running_stats=True)
                                                 (relu): ReLU(inplace=True)
                                                 (downsample): Sequential(
                                                   (0): Conv2d(256, 512, kernel_size=(1, 1), stride=(2, 2), bias=False)
                                                   (1): BatchNorm2d(512, eps=1e-05, momentum=0.1, affine=True, track_running_stats=True)
                                                 )
                                               )
                                               (1): Bottleneck(
                                                 (conv1): Conv2d(512, 128, kernel_size=(1, 1), stride=(1, 1), bias=False)
                                                 (bn1): BatchNorm2d(128, eps=1e-05, momentum=0.1, affine=True, track_running_stats=True)
                                                 (conv2): Conv2d(128, 128, kernel_size=(3, 3), stride=(1, 1), padding=(1, 1), bias=False)
                                                 (bn2): BatchNorm2d(128, eps=1e-05, momentum=0.1, affine=True, track_running_stats=True)
                                                 (conv3): Conv2d(128, 512, kernel_size=(1, 1), stride=(1, 1), bias=False)
                                                 (bn3): BatchNorm2d(512, eps=1e-05, momentum=0.1, affine=True, track_running_stats=True)
                                                 (relu): ReLU(inplace=True)
                                               )
                                               (2): Bottleneck(
                                                 (conv1): Conv2d(512, 128, kernel_size=(1, 1), stride=(1, 1), bias=False)
                                                 (bn1): BatchNorm2d(128, eps=1e-05, momentum=0.1, affine=True, track_running_stats=True)
                                                 (conv2): Conv2d(128, 128, kernel_size=(3, 3), stride=(1, 1), padding=(1, 1), bias=False)
                                                 (bn2): BatchNorm2d(128, eps=1e-05, momentum=0.1, affine=True, track_running_stats=True)
                                                 (conv3): Conv2d(128, 512, kernel_size=(1, 1), stride=(1, 1), bias=False)
                                                 (bn3): BatchNorm2d(512, eps=1e-05, momentum=0.1, affine=True, track_running_stats=True)
                                                 (relu): ReLU(inplace=True)
                                               )
                                               (3): Bottleneck(
                                                 (conv1): Conv2d(512, 128, kernel_size=(1, 1), stride=(1, 1), bias=False)
                                                 (bn1): BatchNorm2d(128, eps=1e-05, momentum=0.1, affine=True, track_running_stats=True)
                                                 (conv2): Conv2d(128, 128, kernel_size=(3, 3), stride=(1, 1), padding=(1, 1), bias=False)
                                                 (bn2): BatchNorm2d(128, eps=1e-05, momentum=0.1, affine=True, track_running_stats=True)
                                                 (conv3): Conv2d(128, 512, kernel_size=(1, 1), stride=(1, 1), bias=False)
                                                 (bn3): BatchNorm2d(512, eps=1e-05, momentum=0.1, affine=True, track_running_stats=True)
                                                 (relu): ReLU(inplace=True)
                                               )
                                               (4): Bottleneck(
                                                 (conv1): Conv2d(512, 128, kernel_size=(1, 1), stride=(1, 1), bias=False)
                                                 (bn1): BatchNorm2d(128, eps=1e-05, momentum=0.1, affine=True, track_running_stats=True)
                                                 (conv2): Conv2d(128, 128, kernel_size=(3, 3), stride=(1, 1), padding=(1, 1), bias=False)
                                                 (bn2): BatchNorm2d(128, eps=1e-05, momentum=0.1, affine=True, track_running_stats=True)
                                                 (conv3): Conv2d(128, 512, kernel_size=(1, 1), stride=(1, 1), bias=False)
                                                 (bn3): BatchNorm2d(512, eps=1e-05, momentum=0.1, affine=True, track_running_stats=True)
                                                 (relu): ReLU(inplace=True)
                                               )
                                               (5): Bottleneck(
                                                 (conv1): Conv2d(512, 128, kernel_size=(1, 1), stride=(1, 1), bias=False)
                                                 (bn1): BatchNorm2d(128, eps=1e-05, momentum=0.1, affine=True, track_running_stats=True)
                                                 (conv2): Conv2d(128, 128, kernel_size=(3, 3), stride=(1, 1), padding=(1, 1), bias=False)
                                                 (bn2): BatchNorm2d(128, eps=1e-05, momentum=0.1, affine=True, track_running_stats=True)
                                                 (conv3): Conv2d(128, 512, kernel_size=(1, 1), stride=(1, 1), bias=False)
                                                 (bn3): BatchNorm2d(512, eps=1e-05, momentum=0.1, affine=True, track_running_stats=True)
                                                 (relu): ReLU(inplace=True)
                                               )
                                               (6): Bottleneck(
                                                 (conv1): Conv2d(512, 128, kernel_size=(1, 1), stride=(1, 1), bias=False)
                                                 (bn1): BatchNorm2d(128, eps=1e-05, momentum=0.1, affine=True, track_running_stats=True)
                                                 (conv2): Conv2d(128, 128, kernel_size=(3, 3), stride=(1, 1), padding=(1, 1), bias=False)
                                                 (bn2): BatchNorm2d(128, eps=1e-05, momentum=0.1, affine=True, track_running_stats=True)
                                                 (conv3): Conv2d(128, 512, kernel_size=(1, 1), stride=(1, 1), bias=False)
                                                 (bn3): BatchNorm2d(512, eps=1e-05, momentum=0.1, affine=True, track_running_stats=True)
                                                 (relu): ReLU(inplace=True)
                                               )
                                               (7): Bottleneck(
                                                 (conv1): Conv2d(512, 128, kernel_size=(1, 1), stride=(1, 1), bias=False)
                                                 (bn1): BatchNorm2d(128, eps=1e-05, momentum=0.1, affine=True, track_running_stats=True)
                                                 (conv2): Conv2d(128, 128, kernel_size=(3, 3), stride=(1, 1), padding=(1, 1), bias=False)
                                                 (bn2): BatchNorm2d(128, eps=1e-05, momentum=0.1, affine=True, track_running_stats=True)
                                                 (conv3): Conv2d(128, 512, kernel_size=(1, 1), stride=(1, 1), bias=False)
                                                 (bn3): BatchNorm2d(512, eps=1e-05, momentum=0.1, affine=True, track_running_stats=True)
                                                 (relu): ReLU(inplace=True)
                                               )
                                             )
                                             (6): Sequential(
                                               (0): Bottleneck(
                                                 (conv1): Conv2d(512, 256, kernel_size=(1, 1), stride=(1, 1), bias=False)
                                                 (bn1): BatchNorm2d(256, eps=1e-05, momentum=0.1, affine=True, track_running_stats=True)
                                                 (conv2): Conv2d(256, 256, kernel_size=(3, 3), stride=(2, 2), padding=(1, 1), bias=False)
                                                 (bn2): BatchNorm2d(256, eps=1e-05, momentum=0.1, affine=True, track_running_stats=True)
                                                 (conv3): Conv2d(256, 1024, kernel_size=(1, 1), stride=(1, 1), bias=False)
                                                 (bn3): BatchNorm2d(1024, eps=1e-05, momentum=0.1, affine=True, track_running_stats=True)
                                                 (relu): ReLU(inplace=True)
                                                 (downsample): Sequential(
                                                   (0): Conv2d(512, 1024, kernel_size=(1, 1), stride=(2, 2), bias=False)
                                                   (1): BatchNorm2d(1024, eps=1e-05, momentum=0.1, affine=True, track_running_stats=True)
                                                 )
                                               )
                                               (1): Bottleneck(
                                                 (conv1): Conv2d(1024, 256, kernel_size=(1, 1), stride=(1, 1), bias=False)
                                                 (bn1): BatchNorm2d(256, eps=1e-05, momentum=0.1, affine=True, track_running_stats=True)
                                                 (conv2): Conv2d(256, 256, kernel_size=(3, 3), stride=(1, 1), padding=(1, 1), bias=False)
                                                 (bn2): BatchNorm2d(256, eps=1e-05, momentum=0.1, affine=True, track_running_stats=True)
                                                 (conv3): Conv2d(256, 1024, kernel_size=(1, 1), stride=(1, 1), bias=False)
                                                 (bn3): BatchNorm2d(1024, eps=1e-05, momentum=0.1, affine=True, track_running_stats=True)
                                                 (relu): ReLU(inplace=True)
                                               )
                                               (2): Bottleneck(
                                                 (conv1): Conv2d(1024, 256, kernel_size=(1, 1), stride=(1, 1), bias=False)
                                                 (bn1): BatchNorm2d(256, eps=1e-05, momentum=0.1, affine=True, track_running_stats=True)
                                                 (conv2): Conv2d(256, 256, kernel_size=(3, 3), stride=(1, 1), padding=(1, 1), bias=False)
                                                 (bn2): BatchNorm2d(256, eps=1e-05, momentum=0.1, affine=True, track_running_stats=True)
                                                 (conv3): Conv2d(256, 1024, kernel_size=(1, 1), stride=(1, 1), bias=False)
                                                 (bn3): BatchNorm2d(1024, eps=1e-05, momentum=0.1, affine=True, track_running_stats=True)
                                                 (relu): ReLU(inplace=True)
                                               )
                                               (3): Bottleneck(
                                                 (conv1): Conv2d(1024, 256, kernel_size=(1, 1), stride=(1, 1), bias=False)
                                                 (bn1): BatchNorm2d(256, eps=1e-05, momentum=0.1, affine=True, track_running_stats=True)
                                                 (conv2): Conv2d(256, 256, kernel_size=(3, 3), stride=(1, 1), padding=(1, 1), bias=False)
                                                 (bn2): BatchNorm2d(256, eps=1e-05, momentum=0.1, affine=True, track_running_stats=True)
                                                 (conv3): Conv2d(256, 1024, kernel_size=(1, 1), stride=(1, 1), bias=False)
                                                 (bn3): BatchNorm2d(1024, eps=1e-05, momentum=0.1, affine=True, track_running_stats=True)
                                                 (relu): ReLU(inplace=True)
                                               )
                                               (4): Bottleneck(
                                                 (conv1): Conv2d(1024, 256, kernel_size=(1, 1), stride=(1, 1), bias=False)
                                                 (bn1): BatchNorm2d(256, eps=1e-05, momentum=0.1, affine=True, track_running_stats=True)
                                                 (conv2): Conv2d(256, 256, kernel_size=(3, 3), stride=(1, 1), padding=(1, 1), bias=False)
                                                 (bn2): BatchNorm2d(256, eps=1e-05, momentum=0.1, affine=True, track_running_stats=True)
                                                 (conv3): Conv2d(256, 1024, kernel_size=(1, 1), stride=(1, 1), bias=False)
                                                 (bn3): BatchNorm2d(1024, eps=1e-05, momentum=0.1, affine=True, track_running_stats=True)
                                                 (relu): ReLU(inplace=True)
                                               )
                                               (5): Bottleneck(
                                                 (conv1): Conv2d(1024, 256, kernel_size=(1, 1), stride=(1, 1), bias=False)
                                                 (bn1): BatchNorm2d(256, eps=1e-05, momentum=0.1, affine=True, track_running_stats=True)
                                                 (conv2): Conv2d(256, 256, kernel_size=(3, 3), stride=(1, 1), padding=(1, 1), bias=False)
                                                 (bn2): BatchNorm2d(256, eps=1e-05, momentum=0.1, affine=True, track_running_stats=True)
                                                 (conv3): Conv2d(256, 1024, kernel_size=(1, 1), stride=(1, 1), bias=False)
                                                 (bn3): BatchNorm2d(1024, eps=1e-05, momentum=0.1, affine=True, track_running_stats=True)
                                                 (relu): ReLU(inplace=True)
                                               )
                                               (6): Bottleneck(
                                                 (conv1): Conv2d(1024, 256, kernel_size=(1, 1), stride=(1, 1), bias=False)
                                                 (bn1): BatchNorm2d(256, eps=1e-05, momentum=0.1, affine=True, track_running_stats=True)
                                                 (conv2): Conv2d(256, 256, kernel_size=(3, 3), stride=(1, 1), padding=(1, 1), bias=False)
                                                 (bn2): BatchNorm2d(256, eps=1e-05, momentum=0.1, affine=True, track_running_stats=True)
                                                 (conv3): Conv2d(256, 1024, kernel_size=(1, 1), stride=(1, 1), bias=False)
                                                 (bn3): BatchNorm2d(1024, eps=1e-05, momentum=0.1, affine=True, track_running_stats=True)
                                                 (relu): ReLU(inplace=True)
                                               )
                                               (7): Bottleneck(
                                                 (conv1): Conv2d(1024, 256, kernel_size=(1, 1), stride=(1, 1), bias=False)
                                                 (bn1): BatchNorm2d(256, eps=1e-05, momentum=0.1, affine=True, track_running_stats=True)
                                                 (conv2): Conv2d(256, 256, kernel_size=(3, 3), stride=(1, 1), padding=(1, 1), bias=False)
                                                 (bn2): BatchNorm2d(256, eps=1e-05, momentum=0.1, affine=True, track_running_stats=True)
                                                 (conv3): Conv2d(256, 1024, kernel_size=(1, 1), stride=(1, 1), bias=False)
                                                 (bn3): BatchNorm2d(1024, eps=1e-05, momentum=0.1, affine=True, track_running_stats=True)
                                                 (relu): ReLU(inplace=True)
                                               )
                                               (8): Bottleneck(
                                                 (conv1): Conv2d(1024, 256, kernel_size=(1, 1), stride=(1, 1), bias=False)
                                                 (bn1): BatchNorm2d(256, eps=1e-05, momentum=0.1, affine=True, track_running_stats=True)
                                                 (conv2): Conv2d(256, 256, kernel_size=(3, 3), stride=(1, 1), padding=(1, 1), bias=False)
                                                 (bn2): BatchNorm2d(256, eps=1e-05, momentum=0.1, affine=True, track_running_stats=True)
                                                 (conv3): Conv2d(256, 1024, kernel_size=(1, 1), stride=(1, 1), bias=False)
                                                 (bn3): BatchNorm2d(1024, eps=1e-05, momentum=0.1, affine=True, track_running_stats=True)
                                                 (relu): ReLU(inplace=True)
                                               )
                                               (9): Bottleneck(
                                                 (conv1): Conv2d(1024, 256, kernel_size=(1, 1), stride=(1, 1), bias=False)
                                                 (bn1): BatchNorm2d(256, eps=1e-05, momentum=0.1, affine=True, track_running_stats=True)
                                                 (conv2): Conv2d(256, 256, kernel_size=(3, 3), stride=(1, 1), padding=(1, 1), bias=False)
                                                 (bn2): BatchNorm2d(256, eps=1e-05, momentum=0.1, affine=True, track_running_stats=True)
                                                 (conv3): Conv2d(256, 1024, kernel_size=(1, 1), stride=(1, 1), bias=False)
                                                 (bn3): BatchNorm2d(1024, eps=1e-05, momentum=0.1, affine=True, track_running_stats=True)
                                                 (relu): ReLU(inplace=True)
                                               )
                                               (10): Bottleneck(
                                                 (conv1): Conv2d(1024, 256, kernel_size=(1, 1), stride=(1, 1), bias=False)
                                                 (bn1): BatchNorm2d(256, eps=1e-05, momentum=0.1, affine=True, track_running_stats=True)
                                                 (conv2): Conv2d(256, 256, kernel_size=(3, 3), stride=(1, 1), padding=(1, 1), bias=False)
                                                 (bn2): BatchNorm2d(256, eps=1e-05, momentum=0.1, affine=True, track_running_stats=True)
                                                 (conv3): Conv2d(256, 1024, kernel_size=(1, 1), stride=(1, 1), bias=False)
                                                 (bn3): BatchNorm2d(1024, eps=1e-05, momentum=0.1, affine=True, track_running_stats=True)
                                                 (relu): ReLU(inplace=True)
                                               )
                                               (11): Bottleneck(
                                                 (conv1): Conv2d(1024, 256, kernel_size=(1, 1), stride=(1, 1), bias=False)
                                                 (bn1): BatchNorm2d(256, eps=1e-05, momentum=0.1, affine=True, track_running_stats=True)
                                                 (conv2): Conv2d(256, 256, kernel_size=(3, 3), stride=(1, 1), padding=(1, 1), bias=False)
                                                 (bn2): BatchNorm2d(256, eps=1e-05, momentum=0.1, affine=True, track_running_stats=True)
                                                 (conv3): Conv2d(256, 1024, kernel_size=(1, 1), stride=(1, 1), bias=False)
                                                 (bn3): BatchNorm2d(1024, eps=1e-05, momentum=0.1, affine=True, track_running_stats=True)
                                                 (relu): ReLU(inplace=True)
                                               )
                                               (12): Bottleneck(
                                                 (conv1): Conv2d(1024, 256, kernel_size=(1, 1), stride=(1, 1), bias=False)
                                                 (bn1): BatchNorm2d(256, eps=1e-05, momentum=0.1, affine=True, track_running_stats=True)
                                                 (conv2): Conv2d(256, 256, kernel_size=(3, 3), stride=(1, 1), padding=(1, 1), bias=False)
                                                 (bn2): BatchNorm2d(256, eps=1e-05, momentum=0.1, affine=True, track_running_stats=True)
                                                 (conv3): Conv2d(256, 1024, kernel_size=(1, 1), stride=(1, 1), bias=False)
                                                 (bn3): BatchNorm2d(1024, eps=1e-05, momentum=0.1, affine=True, track_running_stats=True)
                                                 (relu): ReLU(inplace=True)
                                               )
                                               (13): Bottleneck(
                                                 (conv1): Conv2d(1024, 256, kernel_size=(1, 1), stride=(1, 1), bias=False)
                                                 (bn1): BatchNorm2d(256, eps=1e-05, momentum=0.1, affine=True, track_running_stats=True)
                                                 (conv2): Conv2d(256, 256, kernel_size=(3, 3), stride=(1, 1), padding=(1, 1), bias=False)
                                                 (bn2): BatchNorm2d(256, eps=1e-05, momentum=0.1, affine=True, track_running_stats=True)
                                                 (conv3): Conv2d(256, 1024, kernel_size=(1, 1), stride=(1, 1), bias=False)
                                                 (bn3): BatchNorm2d(1024, eps=1e-05, momentum=0.1, affine=True, track_running_stats=True)
                                                 (relu): ReLU(inplace=True)
                                               )
                                               (14): Bottleneck(
                                                 (conv1): Conv2d(1024, 256, kernel_size=(1, 1), stride=(1, 1), bias=False)
                                                 (bn1): BatchNorm2d(256, eps=1e-05, momentum=0.1, affine=True, track_running_stats=True)
                                                 (conv2): Conv2d(256, 256, kernel_size=(3, 3), stride=(1, 1), padding=(1, 1), bias=False)
                                                 (bn2): BatchNorm2d(256, eps=1e-05, momentum=0.1, affine=True, track_running_stats=True)
                                                 (conv3): Conv2d(256, 1024, kernel_size=(1, 1), stride=(1, 1), bias=False)
                                                 (bn3): BatchNorm2d(1024, eps=1e-05, momentum=0.1, affine=True, track_running_stats=True)
                                                 (relu): ReLU(inplace=True)
                                               )
                                               (15): Bottleneck(
                                                 (conv1): Conv2d(1024, 256, kernel_size=(1, 1), stride=(1, 1), bias=False)
                                                 (bn1): BatchNorm2d(256, eps=1e-05, momentum=0.1, affine=True, track_running_stats=True)
                                                 (conv2): Conv2d(256, 256, kernel_size=(3, 3), stride=(1, 1), padding=(1, 1), bias=False)
                                                 (bn2): BatchNorm2d(256, eps=1e-05, momentum=0.1, affine=True, track_running_stats=True)
                                                 (conv3): Conv2d(256, 1024, kernel_size=(1, 1), stride=(1, 1), bias=False)
                                                 (bn3): BatchNorm2d(1024, eps=1e-05, momentum=0.1, affine=True, track_running_stats=True)
                                                 (relu): ReLU(inplace=True)
                                               )
                                               (16): Bottleneck(
                                                 (conv1): Conv2d(1024, 256, kernel_size=(1, 1), stride=(1, 1), bias=False)
                                                 (bn1): BatchNorm2d(256, eps=1e-05, momentum=0.1, affine=True, track_running_stats=True)
                                                 (conv2): Conv2d(256, 256, kernel_size=(3, 3), stride=(1, 1), padding=(1, 1), bias=False)
                                                 (bn2): BatchNorm2d(256, eps=1e-05, momentum=0.1, affine=True, track_running_stats=True)
                                                 (conv3): Conv2d(256, 1024, kernel_size=(1, 1), stride=(1, 1), bias=False)
                                                 (bn3): BatchNorm2d(1024, eps=1e-05, momentum=0.1, affine=True, track_running_stats=True)
                                                 (relu): ReLU(inplace=True)
                                               )
                                               (17): Bottleneck(
                                                 (conv1): Conv2d(1024, 256, kernel_size=(1, 1), stride=(1, 1), bias=False)
                                                 (bn1): BatchNorm2d(256, eps=1e-05, momentum=0.1, affine=True, track_running_stats=True)
                                                 (conv2): Conv2d(256, 256, kernel_size=(3, 3), stride=(1, 1), padding=(1, 1), bias=False)
                                                 (bn2): BatchNorm2d(256, eps=1e-05, momentum=0.1, affine=True, track_running_stats=True)
                                                 (conv3): Conv2d(256, 1024, kernel_size=(1, 1), stride=(1, 1), bias=False)
                                                 (bn3): BatchNorm2d(1024, eps=1e-05, momentum=0.1, affine=True, track_running_stats=True)
                                                 (relu): ReLU(inplace=True)
                                               )
                                               (18): Bottleneck(
                                                 (conv1): Conv2d(1024, 256, kernel_size=(1, 1), stride=(1, 1), bias=False)
                                                 (bn1): BatchNorm2d(256, eps=1e-05, momentum=0.1, affine=True, track_running_stats=True)
                                                 (conv2): Conv2d(256, 256, kernel_size=(3, 3), stride=(1, 1), padding=(1, 1), bias=False)
                                                 (bn2): BatchNorm2d(256, eps=1e-05, momentum=0.1, affine=True, track_running_stats=True)
                                                 (conv3): Conv2d(256, 1024, kernel_size=(1, 1), stride=(1, 1), bias=False)
                                                 (bn3): BatchNorm2d(1024, eps=1e-05, momentum=0.1, affine=True, track_running_stats=True)
                                                 (relu): ReLU(inplace=True)
                                               )
                                               (19): Bottleneck(
                                                 (conv1): Conv2d(1024, 256, kernel_size=(1, 1), stride=(1, 1), bias=False)
                                                 (bn1): BatchNorm2d(256, eps=1e-05, momentum=0.1, affine=True, track_running_stats=True)
                                                 (conv2): Conv2d(256, 256, kernel_size=(3, 3), stride=(1, 1), padding=(1, 1), bias=False)
                                                 (bn2): BatchNorm2d(256, eps=1e-05, momentum=0.1, affine=True, track_running_stats=True)
                                                 (conv3): Conv2d(256, 1024, kernel_size=(1, 1), stride=(1, 1), bias=False)
                                                 (bn3): BatchNorm2d(1024, eps=1e-05, momentum=0.1, affine=True, track_running_stats=True)
                                                 (relu): ReLU(inplace=True)
                                               )
                                               (20): Bottleneck(
                                                 (conv1): Conv2d(1024, 256, kernel_size=(1, 1), stride=(1, 1), bias=False)
                                                 (bn1): BatchNorm2d(256, eps=1e-05, momentum=0.1, affine=True, track_running_stats=True)
                                                 (conv2): Conv2d(256, 256, kernel_size=(3, 3), stride=(1, 1), padding=(1, 1), bias=False)
                                                 (bn2): BatchNorm2d(256, eps=1e-05, momentum=0.1, affine=True, track_running_stats=True)
                                                 (conv3): Conv2d(256, 1024, kernel_size=(1, 1), stride=(1, 1), bias=False)
                                                 (bn3): BatchNorm2d(1024, eps=1e-05, momentum=0.1, affine=True, track_running_stats=True)
                                                 (relu): ReLU(inplace=True)
                                               )
                                               (21): Bottleneck(
                                                 (conv1): Conv2d(1024, 256, kernel_size=(1, 1), stride=(1, 1), bias=False)
                                                 (bn1): BatchNorm2d(256, eps=1e-05, momentum=0.1, affine=True, track_running_stats=True)
                                                 (conv2): Conv2d(256, 256, kernel_size=(3, 3), stride=(1, 1), padding=(1, 1), bias=False)
                                                 (bn2): BatchNorm2d(256, eps=1e-05, momentum=0.1, affine=True, track_running_stats=True)
                                                 (conv3): Conv2d(256, 1024, kernel_size=(1, 1), stride=(1, 1), bias=False)
                                                 (bn3): BatchNorm2d(1024, eps=1e-05, momentum=0.1, affine=True, track_running_stats=True)
                                                 (relu): ReLU(inplace=True)
                                               )
                                               (22): Bottleneck(
                                                 (conv1): Conv2d(1024, 256, kernel_size=(1, 1), stride=(1, 1), bias=False)
                                                 (bn1): BatchNorm2d(256, eps=1e-05, momentum=0.1, affine=True, track_running_stats=True)
                                                 (conv2): Conv2d(256, 256, kernel_size=(3, 3), stride=(1, 1), padding=(1, 1), bias=False)
                                                 (bn2): BatchNorm2d(256, eps=1e-05, momentum=0.1, affine=True, track_running_stats=True)
                                                 (conv3): Conv2d(256, 1024, kernel_size=(1, 1), stride=(1, 1), bias=False)
                                                 (bn3): BatchNorm2d(1024, eps=1e-05, momentum=0.1, affine=True, track_running_stats=True)
                                                 (relu): ReLU(inplace=True)
                                               )
                                               (23): Bottleneck(
                                                 (conv1): Conv2d(1024, 256, kernel_size=(1, 1), stride=(1, 1), bias=False)
                                                 (bn1): BatchNorm2d(256, eps=1e-05, momentum=0.1, affine=True, track_running_stats=True)
                                                 (conv2): Conv2d(256, 256, kernel_size=(3, 3), stride=(1, 1), padding=(1, 1), bias=False)
                                                 (bn2): BatchNorm2d(256, eps=1e-05, momentum=0.1, affine=True, track_running_stats=True)
                                                 (conv3): Conv2d(256, 1024, kernel_size=(1, 1), stride=(1, 1), bias=False)
                                                 (bn3): BatchNorm2d(1024, eps=1e-05, momentum=0.1, affine=True, track_running_stats=True)
                                                 (relu): ReLU(inplace=True)
                                               )
                                               (24): Bottleneck(
                                                 (conv1): Conv2d(1024, 256, kernel_size=(1, 1), stride=(1, 1), bias=False)
                                                 (bn1): BatchNorm2d(256, eps=1e-05, momentum=0.1, affine=True, track_running_stats=True)
                                                 (conv2): Conv2d(256, 256, kernel_size=(3, 3), stride=(1, 1), padding=(1, 1), bias=False)
                                                 (bn2): BatchNorm2d(256, eps=1e-05, momentum=0.1, affine=True, track_running_stats=True)
                                                 (conv3): Conv2d(256, 1024, kernel_size=(1, 1), stride=(1, 1), bias=False)
                                                 (bn3): BatchNorm2d(1024, eps=1e-05, momentum=0.1, affine=True, track_running_stats=True)
                                                 (relu): ReLU(inplace=True)
                                               )
                                               (25): Bottleneck(
                                                 (conv1): Conv2d(1024, 256, kernel_size=(1, 1), stride=(1, 1), bias=False)
                                                 (bn1): BatchNorm2d(256, eps=1e-05, momentum=0.1, affine=True, track_running_stats=True)
                                                 (conv2): Conv2d(256, 256, kernel_size=(3, 3), stride=(1, 1), padding=(1, 1), bias=False)
                                                 (bn2): BatchNorm2d(256, eps=1e-05, momentum=0.1, affine=True, track_running_stats=True)
                                                 (conv3): Conv2d(256, 1024, kernel_size=(1, 1), stride=(1, 1), bias=False)
                                                 (bn3): BatchNorm2d(1024, eps=1e-05, momentum=0.1, affine=True, track_running_stats=True)
                                                 (relu): ReLU(inplace=True)
                                               )
                                               (26): Bottleneck(
                                                 (conv1): Conv2d(1024, 256, kernel_size=(1, 1), stride=(1, 1), bias=False)
                                                 (bn1): BatchNorm2d(256, eps=1e-05, momentum=0.1, affine=True, track_running_stats=True)
                                                 (conv2): Conv2d(256, 256, kernel_size=(3, 3), stride=(1, 1), padding=(1, 1), bias=False)
                                                 (bn2): BatchNorm2d(256, eps=1e-05, momentum=0.1, affine=True, track_running_stats=True)
                                                 (conv3): Conv2d(256, 1024, kernel_size=(1, 1), stride=(1, 1), bias=False)
                                                 (bn3): BatchNorm2d(1024, eps=1e-05, momentum=0.1, affine=True, track_running_stats=True)
                                                 (relu): ReLU(inplace=True)
                                               )
                                               (27): Bottleneck(
                                                 (conv1): Conv2d(1024, 256, kernel_size=(1, 1), stride=(1, 1), bias=False)
                                                 (bn1): BatchNorm2d(256, eps=1e-05, momentum=0.1, affine=True, track_running_stats=True)
                                                 (conv2): Conv2d(256, 256, kernel_size=(3, 3), stride=(1, 1), padding=(1, 1), bias=False)
                                                 (bn2): BatchNorm2d(256, eps=1e-05, momentum=0.1, affine=True, track_running_stats=True)
                                                 (conv3): Conv2d(256, 1024, kernel_size=(1, 1), stride=(1, 1), bias=False)
                                                 (bn3): BatchNorm2d(1024, eps=1e-05, momentum=0.1, affine=True, track_running_stats=True)
                                                 (relu): ReLU(inplace=True)
                                               )
                                               (28): Bottleneck(
                                                 (conv1): Conv2d(1024, 256, kernel_size=(1, 1), stride=(1, 1), bias=False)
                                                 (bn1): BatchNorm2d(256, eps=1e-05, momentum=0.1, affine=True, track_running_stats=True)
                                                 (conv2): Conv2d(256, 256, kernel_size=(3, 3), stride=(1, 1), padding=(1, 1), bias=False)
                                                 (bn2): BatchNorm2d(256, eps=1e-05, momentum=0.1, affine=True, track_running_stats=True)
                                                 (conv3): Conv2d(256, 1024, kernel_size=(1, 1), stride=(1, 1), bias=False)
                                                 (bn3): BatchNorm2d(1024, eps=1e-05, momentum=0.1, affine=True, track_running_stats=True)
                                                 (relu): ReLU(inplace=True)
                                               )
                                               (29): Bottleneck(
                                                 (conv1): Conv2d(1024, 256, kernel_size=(1, 1), stride=(1, 1), bias=False)
                                                 (bn1): BatchNorm2d(256, eps=1e-05, momentum=0.1, affine=True, track_running_stats=True)
                                                 (conv2): Conv2d(256, 256, kernel_size=(3, 3), stride=(1, 1), padding=(1, 1), bias=False)
                                                 (bn2): BatchNorm2d(256, eps=1e-05, momentum=0.1, affine=True, track_running_stats=True)
                                                 (conv3): Conv2d(256, 1024, kernel_size=(1, 1), stride=(1, 1), bias=False)
                                                 (bn3): BatchNorm2d(1024, eps=1e-05, momentum=0.1, affine=True, track_running_stats=True)
                                                 (relu): ReLU(inplace=True)
                                               )
                                               (30): Bottleneck(
                                                 (conv1): Conv2d(1024, 256, kernel_size=(1, 1), stride=(1, 1), bias=False)
                                                 (bn1): BatchNorm2d(256, eps=1e-05, momentum=0.1, affine=True, track_running_stats=True)
                                                 (conv2): Conv2d(256, 256, kernel_size=(3, 3), stride=(1, 1), padding=(1, 1), bias=False)
                                                 (bn2): BatchNorm2d(256, eps=1e-05, momentum=0.1, affine=True, track_running_stats=True)
                                                 (conv3): Conv2d(256, 1024, kernel_size=(1, 1), stride=(1, 1), bias=False)
                                                 (bn3): BatchNorm2d(1024, eps=1e-05, momentum=0.1, affine=True, track_running_stats=True)
                                                 (relu): ReLU(inplace=True)
                                               )
                                               (31): Bottleneck(
                                                 (conv1): Conv2d(1024, 256, kernel_size=(1, 1), stride=(1, 1), bias=False)
                                                 (bn1): BatchNorm2d(256, eps=1e-05, momentum=0.1, affine=True, track_running_stats=True)
                                                 (conv2): Conv2d(256, 256, kernel_size=(3, 3), stride=(1, 1), padding=(1, 1), bias=False)
                                                 (bn2): BatchNorm2d(256, eps=1e-05, momentum=0.1, affine=True, track_running_stats=True)
                                                 (conv3): Conv2d(256, 1024, kernel_size=(1, 1), stride=(1, 1), bias=False)
                                                 (bn3): BatchNorm2d(1024, eps=1e-05, momentum=0.1, affine=True, track_running_stats=True)
                                                 (relu): ReLU(inplace=True)
                                               )
                                               (32): Bottleneck(
                                                 (conv1): Conv2d(1024, 256, kernel_size=(1, 1), stride=(1, 1), bias=False)
                                                 (bn1): BatchNorm2d(256, eps=1e-05, momentum=0.1, affine=True, track_running_stats=True)
                                                 (conv2): Conv2d(256, 256, kernel_size=(3, 3), stride=(1, 1), padding=(1, 1), bias=False)
                                                 (bn2): BatchNorm2d(256, eps=1e-05, momentum=0.1, affine=True, track_running_stats=True)
                                                 (conv3): Conv2d(256, 1024, kernel_size=(1, 1), stride=(1, 1), bias=False)
                                                 (bn3): BatchNorm2d(1024, eps=1e-05, momentum=0.1, affine=True, track_running_stats=True)
                                                 (relu): ReLU(inplace=True)
                                               )
                                               (33): Bottleneck(
                                                 (conv1): Conv2d(1024, 256, kernel_size=(1, 1), stride=(1, 1), bias=False)
                                                 (bn1): BatchNorm2d(256, eps=1e-05, momentum=0.1, affine=True, track_running_stats=True)
                                                 (conv2): Conv2d(256, 256, kernel_size=(3, 3), stride=(1, 1), padding=(1, 1), bias=False)
                                                 (bn2): BatchNorm2d(256, eps=1e-05, momentum=0.1, affine=True, track_running_stats=True)
                                                 (conv3): Conv2d(256, 1024, kernel_size=(1, 1), stride=(1, 1), bias=False)
                                                 (bn3): BatchNorm2d(1024, eps=1e-05, momentum=0.1, affine=True, track_running_stats=True)
                                                 (relu): ReLU(inplace=True)
                                               )
                                               (34): Bottleneck(
                                                 (conv1): Conv2d(1024, 256, kernel_size=(1, 1), stride=(1, 1), bias=False)
                                                 (bn1): BatchNorm2d(256, eps=1e-05, momentum=0.1, affine=True, track_running_stats=True)
                                                 (conv2): Conv2d(256, 256, kernel_size=(3, 3), stride=(1, 1), padding=(1, 1), bias=False)
                                                 (bn2): BatchNorm2d(256, eps=1e-05, momentum=0.1, affine=True, track_running_stats=True)
                                                 (conv3): Conv2d(256, 1024, kernel_size=(1, 1), stride=(1, 1), bias=False)
                                                 (bn3): BatchNorm2d(1024, eps=1e-05, momentum=0.1, affine=True, track_running_stats=True)
                                                 (relu): ReLU(inplace=True)
                                               )
                                               (35): Bottleneck(
                                                 (conv1): Conv2d(1024, 256, kernel_size=(1, 1), stride=(1, 1), bias=False)
                                                 (bn1): BatchNorm2d(256, eps=1e-05, momentum=0.1, affine=True, track_running_stats=True)
                                                 (conv2): Conv2d(256, 256, kernel_size=(3, 3), stride=(1, 1), padding=(1, 1), bias=False)
                                                 (bn2): BatchNorm2d(256, eps=1e-05, momentum=0.1, affine=True, track_running_stats=True)
                                                 (conv3): Conv2d(256, 1024, kernel_size=(1, 1), stride=(1, 1), bias=False)
                                                 (bn3): BatchNorm2d(1024, eps=1e-05, momentum=0.1, affine=True, track_running_stats=True)
                                                 (relu): ReLU(inplace=True)
                                               )
                                             )
                                             (7): Sequential(
                                               (0): Bottleneck(
                                                 (conv1): Conv2d(1024, 512, kernel_size=(1, 1), stride=(1, 1), bias=False)
                                                 (bn1): BatchNorm2d(512, eps=1e-05, momentum=0.1, affine=True, track_running_stats=True)
                                                 (conv2): Conv2d(512, 512, kernel_size=(3, 3), stride=(2, 2), padding=(1, 1), bias=False)
                                                 (bn2): BatchNorm2d(512, eps=1e-05, momentum=0.1, affine=True, track_running_stats=True)
                                                 (conv3): Conv2d(512, 2048, kernel_size=(1, 1), stride=(1, 1), bias=False)
                                                 (bn3): BatchNorm2d(2048, eps=1e-05, momentum=0.1, affine=True, track_running_stats=True)
                                                 (relu): ReLU(inplace=True)
                                                 (downsample): Sequential(
                                                   (0): Conv2d(1024, 2048, kernel_size=(1, 1), stride=(2, 2), bias=False)
                                                   (1): BatchNorm2d(2048, eps=1e-05, momentum=0.1, affine=True, track_running_stats=True)
                                                 )
                                               )
                                               (1): Bottleneck(
                                                 (conv1): Conv2d(2048, 512, kernel_size=(1, 1), stride=(1, 1), bias=False)
                                                 (bn1): BatchNorm2d(512, eps=1e-05, momentum=0.1, affine=True, track_running_stats=True)
                                                 (conv2): Conv2d(512, 512, kernel_size=(3, 3), stride=(1, 1), padding=(1, 1), bias=False)
                                                 (bn2): BatchNorm2d(512, eps=1e-05, momentum=0.1, affine=True, track_running_stats=True)
                                                 (conv3): Conv2d(512, 2048, kernel_size=(1, 1), stride=(1, 1), bias=False)
                                                 (bn3): BatchNorm2d(2048, eps=1e-05, momentum=0.1, affine=True, track_running_stats=True)
                                                 (relu): ReLU(inplace=True)
                                               )
                                               (2): Bottleneck(
                                                 (conv1): Conv2d(2048, 512, kernel_size=(1, 1), stride=(1, 1), bias=False)
                                                 (bn1): BatchNorm2d(512, eps=1e-05, momentum=0.1, affine=True, track_running_stats=True)
                                                 (conv2): Conv2d(512, 512, kernel_size=(3, 3), stride=(1, 1), padding=(1, 1), bias=False)
                                                 (bn2): BatchNorm2d(512, eps=1e-05, momentum=0.1, affine=True, track_running_stats=True)
                                                 (conv3): Conv2d(512, 2048, kernel_size=(1, 1), stride=(1, 1), bias=False)
                                                 (bn3): BatchNorm2d(2048, eps=1e-05, momentum=0.1, affine=True, track_running_stats=True)
                                                 (relu): ReLU(inplace=True)
                                               )
                                             )
                                           )
                                           (pool): AdaptiveAvgPool2d(output_size=(3, 1))
                                         )
                                         (encoder): BertEncoder(
                                           (layer): ModuleList(
                                             (0): BertLayer(
                                               (attention): BertAttention(
                                                 (self): BertSelfAttention(
                                                   (query): Linear(in_features=768, out_features=768, bias=True)
                                                   (key): Linear(in_features=768, out_features=768, bias=True)
                                                   (value): Linear(in_features=768, out_features=768, bias=True)
                                                   (dropout): Dropout(p=0.1, inplace=False)
                                                 )
                                                 (output): BertSelfOutput(
                                                   (dense): Linear(in_features=768, out_features=768, bias=True)
                                                   (LayerNorm): BertLayerNorm()
                                                   (dropout): Dropout(p=0.1, inplace=False)
                                                 )
                                               )
                                               (intermediate): BertIntermediate(
                                                 (dense): Linear(in_features=768, out_features=3072, bias=True)
                                               )
                                               (output): BertOutput(
                                                 (dense): Linear(in_features=3072, out_features=768, bias=True)
                                                 (LayerNorm): BertLayerNorm()
                                                 (dropout): Dropout(p=0.1, inplace=False)
                                               )
                                             )
                                             (1): BertLayer(
                                               (attention): BertAttention(
                                                 (self): BertSelfAttention(
                                                   (query): Linear(in_features=768, out_features=768, bias=True)
                                                   (key): Linear(in_features=768, out_features=768, bias=True)
                                                   (value): Linear(in_features=768, out_features=768, bias=True)
                                                   (dropout): Dropout(p=0.1, inplace=False)
                                                 )
                                                 (output): BertSelfOutput(
                                                   (dense): Linear(in_features=768, out_features=768, bias=True)
                                                   (LayerNorm): BertLayerNorm()
                                                   (dropout): Dropout(p=0.1, inplace=False)
                                                 )
                                               )
                                               (intermediate): BertIntermediate(
                                                 (dense): Linear(in_features=768, out_features=3072, bias=True)
                                               )
                                               (output): BertOutput(
                                                 (dense): Linear(in_features=3072, out_features=768, bias=True)
                                                 (LayerNorm): BertLayerNorm()
                                                 (dropout): Dropout(p=0.1, inplace=False)
                                               )
                                             )
                                             (2): BertLayer(
                                               (attention): BertAttention(
                                                 (self): BertSelfAttention(
                                                   (query): Linear(in_features=768, out_features=768, bias=True)
                                                   (key): Linear(in_features=768, out_features=768, bias=True)
                                                   (value): Linear(in_features=768, out_features=768, bias=True)
                                                   (dropout): Dropout(p=0.1, inplace=False)
                                                 )
                                                 (output): BertSelfOutput(
                                                   (dense): Linear(in_features=768, out_features=768, bias=True)
                                                   (LayerNorm): BertLayerNorm()
                                                   (dropout): Dropout(p=0.1, inplace=False)
                                                 )
                                               )
                                               (intermediate): BertIntermediate(
                                                 (dense): Linear(in_features=768, out_features=3072, bias=True)
                                               )
                                               (output): BertOutput(
                                                 (dense): Linear(in_features=3072, out_features=768, bias=True)
                                                 (LayerNorm): BertLayerNorm()
                                                 (dropout): Dropout(p=0.1, inplace=False)
                                               )
                                             )
                                             (3): BertLayer(
                                               (attention): BertAttention(
                                                 (self): BertSelfAttention(
                                                   (query): Linear(in_features=768, out_features=768, bias=True)
                                                   (key): Linear(in_features=768, out_features=768, bias=True)
                                                   (value): Linear(in_features=768, out_features=768, bias=True)
                                                   (dropout): Dropout(p=0.1, inplace=False)
                                                 )
                                                 (output): BertSelfOutput(
                                                   (dense): Linear(in_features=768, out_features=768, bias=True)
                                                   (LayerNorm): BertLayerNorm()
                                                   (dropout): Dropout(p=0.1, inplace=False)
                                                 )
                                               )
                                               (intermediate): BertIntermediate(
                                                 (dense): Linear(in_features=768, out_features=3072, bias=True)
                                               )
                                               (output): BertOutput(
                                                 (dense): Linear(in_features=3072, out_features=768, bias=True)
                                                 (LayerNorm): BertLayerNorm()
                                                 (dropout): Dropout(p=0.1, inplace=False)
                                               )
                                             )
                                             (4): BertLayer(
                                               (attention): BertAttention(
                                                 (self): BertSelfAttention(
                                                   (query): Linear(in_features=768, out_features=768, bias=True)
                                                   (key): Linear(in_features=768, out_features=768, bias=True)
                                                   (value): Linear(in_features=768, out_features=768, bias=True)
                                                   (dropout): Dropout(p=0.1, inplace=False)
                                                 )
                                                 (output): BertSelfOutput(
                                                   (dense): Linear(in_features=768, out_features=768, bias=True)
                                                   (LayerNorm): BertLayerNorm()
                                                   (dropout): Dropout(p=0.1, inplace=False)
                                                 )
                                               )
                                               (intermediate): BertIntermediate(
                                                 (dense): Linear(in_features=768, out_features=3072, bias=True)
                                               )
                                               (output): BertOutput(
                                                 (dense): Linear(in_features=3072, out_features=768, bias=True)
                                                 (LayerNorm): BertLayerNorm()
                                                 (dropout): Dropout(p=0.1, inplace=False)
                                               )
                                             )
                                             (5): BertLayer(
                                               (attention): BertAttention(
                                                 (self): BertSelfAttention(
                                                   (query): Linear(in_features=768, out_features=768, bias=True)
                                                   (key): Linear(in_features=768, out_features=768, bias=True)
                                                   (value): Linear(in_features=768, out_features=768, bias=True)
                                                   (dropout): Dropout(p=0.1, inplace=False)
                                                 )
                                                 (output): BertSelfOutput(
                                                   (dense): Linear(in_features=768, out_features=768, bias=True)
                                                   (LayerNorm): BertLayerNorm()
                                                   (dropout): Dropout(p=0.1, inplace=False)
                                                 )
                                               )
                                               (intermediate): BertIntermediate(
                                                 (dense): Linear(in_features=768, out_features=3072, bias=True)
                                               )
                                               (output): BertOutput(
                                                 (dense): Linear(in_features=3072, out_features=768, bias=True)
                                                 (LayerNorm): BertLayerNorm()
                                                 (dropout): Dropout(p=0.1, inplace=False)
                                               )
                                             )
                                             (6): BertLayer(
                                               (attention): BertAttention(
                                                 (self): BertSelfAttention(
                                                   (query): Linear(in_features=768, out_features=768, bias=True)
                                                   (key): Linear(in_features=768, out_features=768, bias=True)
                                                   (value): Linear(in_features=768, out_features=768, bias=True)
                                                   (dropout): Dropout(p=0.1, inplace=False)
                                                 )
                                                 (output): BertSelfOutput(
                                                   (dense): Linear(in_features=768, out_features=768, bias=True)
                                                   (LayerNorm): BertLayerNorm()
                                                   (dropout): Dropout(p=0.1, inplace=False)
                                                 )
                                               )
                                               (intermediate): BertIntermediate(
                                                 (dense): Linear(in_features=768, out_features=3072, bias=True)
                                               )
                                               (output): BertOutput(
                                                 (dense): Linear(in_features=3072, out_features=768, bias=True)
                                                 (LayerNorm): BertLayerNorm()
                                                 (dropout): Dropout(p=0.1, inplace=False)
                                               )
                                             )
                                             (7): BertLayer(
                                               (attention): BertAttention(
                                                 (self): BertSelfAttention(
                                                   (query): Linear(in_features=768, out_features=768, bias=True)
                                                   (key): Linear(in_features=768, out_features=768, bias=True)
                                                   (value): Linear(in_features=768, out_features=768, bias=True)
                                                   (dropout): Dropout(p=0.1, inplace=False)
                                                 )
                                                 (output): BertSelfOutput(
                                                   (dense): Linear(in_features=768, out_features=768, bias=True)
                                                   (LayerNorm): BertLayerNorm()
                                                   (dropout): Dropout(p=0.1, inplace=False)
                                                 )
                                               )
                                               (intermediate): BertIntermediate(
                                                 (dense): Linear(in_features=768, out_features=3072, bias=True)
                                               )
                                               (output): BertOutput(
                                                 (dense): Linear(in_features=3072, out_features=768, bias=True)
                                                 (LayerNorm): BertLayerNorm()
                                                 (dropout): Dropout(p=0.1, inplace=False)
                                               )
                                             )
                                             (8): BertLayer(
                                               (attention): BertAttention(
                                                 (self): BertSelfAttention(
                                                   (query): Linear(in_features=768, out_features=768, bias=True)
                                                   (key): Linear(in_features=768, out_features=768, bias=True)
                                                   (value): Linear(in_features=768, out_features=768, bias=True)
                                                   (dropout): Dropout(p=0.1, inplace=False)
                                                 )
                                                 (output): BertSelfOutput(
                                                   (dense): Linear(in_features=768, out_features=768, bias=True)
                                                   (LayerNorm): BertLayerNorm()
                                                   (dropout): Dropout(p=0.1, inplace=False)
                                                 )
                                               )
                                               (intermediate): BertIntermediate(
                                                 (dense): Linear(in_features=768, out_features=3072, bias=True)
                                               )
                                               (output): BertOutput(
                                                 (dense): Linear(in_features=3072, out_features=768, bias=True)
                                                 (LayerNorm): BertLayerNorm()
                                                 (dropout): Dropout(p=0.1, inplace=False)
                                               )
                                             )
                                             (9): BertLayer(
                                               (attention): BertAttention(
                                                 (self): BertSelfAttention(
                                                   (query): Linear(in_features=768, out_features=768, bias=True)
                                                   (key): Linear(in_features=768, out_features=768, bias=True)
                                                   (value): Linear(in_features=768, out_features=768, bias=True)
                                                   (dropout): Dropout(p=0.1, inplace=False)
                                                 )
                                                 (output): BertSelfOutput(
                                                   (dense): Linear(in_features=768, out_features=768, bias=True)
                                                   (LayerNorm): BertLayerNorm()
                                                   (dropout): Dropout(p=0.1, inplace=False)
                                                 )
                                               )
                                               (intermediate): BertIntermediate(
                                                 (dense): Linear(in_features=768, out_features=3072, bias=True)
                                               )
                                               (output): BertOutput(
                                                 (dense): Linear(in_features=3072, out_features=768, bias=True)
                                                 (LayerNorm): BertLayerNorm()
                                                 (dropout): Dropout(p=0.1, inplace=False)
                                               )
                                             )
                                             (10): BertLayer(
                                               (attention): BertAttention(
                                                 (self): BertSelfAttention(
                                                   (query): Linear(in_features=768, out_features=768, bias=True)
                                                   (key): Linear(in_features=768, out_features=768, bias=True)
                                                   (value): Linear(in_features=768, out_features=768, bias=True)
                                                   (dropout): Dropout(p=0.1, inplace=False)
                                                 )
                                                 (output): BertSelfOutput(
                                                   (dense): Linear(in_features=768, out_features=768, bias=True)
                                                   (LayerNorm): BertLayerNorm()
                                                   (dropout): Dropout(p=0.1, inplace=False)
                                                 )
                                               )
                                               (intermediate): BertIntermediate(
                                                 (dense): Linear(in_features=768, out_features=3072, bias=True)
                                               )
                                               (output): BertOutput(
                                                 (dense): Linear(in_features=3072, out_features=768, bias=True)
                                                 (LayerNorm): BertLayerNorm()
                                                 (dropout): Dropout(p=0.1, inplace=False)
                                               )
                                             )
                                             (11): BertLayer(
                                               (attention): BertAttention(
                                                 (self): BertSelfAttention(
                                                   (query): Linear(in_features=768, out_features=768, bias=True)
                                                   (key): Linear(in_features=768, out_features=768, bias=True)
                                                   (value): Linear(in_features=768, out_features=768, bias=True)
                                                   (dropout): Dropout(p=0.1, inplace=False)
                                                 )
                                                 (output): BertSelfOutput(
                                                   (dense): Linear(in_features=768, out_features=768, bias=True)
                                                   (LayerNorm): BertLayerNorm()
                                                   (dropout): Dropout(p=0.1, inplace=False)
                                                 )
                                               )
                                               (intermediate): BertIntermediate(
                                                 (dense): Linear(in_features=768, out_features=3072, bias=True)
                                               )
                                               (output): BertOutput(
                                                 (dense): Linear(in_features=3072, out_features=768, bias=True)
                                                 (LayerNorm): BertLayerNorm()
                                                 (dropout): Dropout(p=0.1, inplace=False)
                                               )
                                             )
                                           )
                                         )
                                         (pooler): BertPooler(
                                           (dense): Linear(in_features=768, out_features=768, bias=True)
                                           (activation): Tanh()
                                         )
                                         (clf): Sequential(
                                           (0): Linear(in_features=768, out_features=128, bias=True)
                                           (1): ReLU()
                                           (2): Linear(in_features=128, out_features=64, bias=True)
                                           (3): ReLU()
                                           (4): Linear(in_features=64, out_features=25, bias=True)
                                         )
                                       )
                                       (clf): Linear(in_features=768, out_features=25, bias=True)
                                     )
INFO - 04/18/23 23:23:07 - 0:00:00 - batch_sz: 4
                                     bert_model: bert-base-uncased
                                     data_path: /home/taysin/Documents/personal/mmbt/data/
                                     drop_img_percent: 0.0
                                     dropout: 0.1
                                     embed_sz: 300
…
